module attributes {dlti.dl_spec = #dlti.dl_spec<#dlti.dl_entry<i64, dense<[32, 64]> : vector<2xi64>>, #dlti.dl_entry<f16, dense<16> : vector<2xi64>>, #dlti.dl_entry<i32, dense<32> : vector<2xi64>>, #dlti.dl_entry<f128, dense<128> : vector<2xi64>>, #dlti.dl_entry<f64, dense<64> : vector<2xi64>>, #dlti.dl_entry<!llvm.ptr, dense<64> : vector<4xi64>>, #dlti.dl_entry<i1, dense<8> : vector<2xi64>>, #dlti.dl_entry<i16, dense<16> : vector<2xi64>>, #dlti.dl_entry<i8, dense<8> : vector<2xi64>>, #dlti.dl_entry<"dlti.endianness", "little">>} {
  llvm.mlir.global private constant @__constant_8x5x5x1xf32(dense<"…"> : tensor<8x5x5x1xf32>) {addr_space = 0 : i32, alignment = 64 : i64, dso_local} : !llvm.array<8 x array<5 x array<5 x array<1 x f32>>>>
  llvm.func @free(!llvm.ptr)
  llvm.func @memrefCopy(i64, !llvm.ptr, !llvm.ptr)
  llvm.func @malloc(i64) -> !llvm.ptr
  llvm.func @CNTKGraph(%arg0: !llvm.ptr, %arg1: !llvm.ptr, %arg2: i64, %arg3: i64, %arg4: i64, %arg5: i64, %arg6: i64, %arg7: i64, %arg8: i64, %arg9: i64, %arg10: i64, %arg11: !llvm.ptr, %arg12: !llvm.ptr, %arg13: i64, %arg14: i64, %arg15: i64, %arg16: i64, %arg17: i64, %arg18: i64, %arg19: i64, %arg20: i64, %arg21: i64) {
    %0 = llvm.mlir.undef : !llvm.struct<(ptr, ptr, i64, array<4 x i64>, array<4 x i64>)>
    %1 = llvm.mlir.constant(64 : i64) : i64
    %2 = llvm.mlir.constant(784 : i32) : i32
    %3 = llvm.mlir.zero : !llvm.ptr
    %4 = llvm.getelementptr %3[%2] : (!llvm.ptr, i32) -> !llvm.ptr, f32
    %5 = llvm.ptrtoint %4 : !llvm.ptr to i64
    %6 = llvm.add %5, %1 : i64
    %7 = llvm.mlir.constant(63 : i64) : i64
    %8 = llvm.mlir.constant(0 : i64) : i64
    %9 = llvm.mlir.constant(1 : i64) : i64
    %10 = llvm.mlir.constant(28 : i64) : i64
    %11 = llvm.mlir.constant(784 : i64) : i64
    %12 = llvm.mlir.undef : !llvm.ptr
    %13 = llvm.mlir.constant(4 : i64) : i64
    %14 = llvm.mlir.undef : !llvm.struct<(i64, ptr)>
    %15 = llvm.insertvalue %13, %14[0] : !llvm.struct<(i64, ptr)> 
    %16 = llvm.insertvalue %12, %15[1] : !llvm.struct<(i64, ptr)> 
    %17 = llvm.mlir.constant(1 : i32) : i32
    %18 = llvm.getelementptr %3[%17] : (!llvm.ptr, i32) -> !llvm.ptr, f32
    %19 = llvm.ptrtoint %18 : !llvm.ptr to i64
    %20 = llvm.mlir.constant(1024 : i32) : i32
    %21 = llvm.getelementptr %3[%20] : (!llvm.ptr, i32) -> !llvm.ptr, f32
    %22 = llvm.ptrtoint %21 : !llvm.ptr to i64
    %23 = llvm.add %22, %1 : i64
    %24 = llvm.mlir.constant(1024 : i64) : i64
    %25 = llvm.mlir.constant(66 : i64) : i64
    %26 = llvm.mlir.constant(32 : i64) : i64
    %27 = llvm.mlir.constant(6272 : i32) : i32
    %28 = llvm.getelementptr %3[%27] : (!llvm.ptr, i32) -> !llvm.ptr, f32
    %29 = llvm.ptrtoint %28 : !llvm.ptr to i64
    %30 = llvm.add %29, %1 : i64
    %31 = llvm.mlir.constant(6272 : i64) : i64
    %32 = llvm.mul %19, %31 : i64
    %33 = llvm.mlir.constant(-1 : i64) : i64
    %34 = llvm.mlir.constant(224 : i64) : i64
    %35 = llvm.mlir.constant(8 : i64) : i64
    %36 = llvm.mlir.constant(0.000000e+00 : f32) : f32
    %37 = llvm.mlir.constant(25 : i64) : i64
    %38 = llvm.mlir.constant(5 : i64) : i64
    %39 = llvm.mlir.constant(dense<-0.190349951> : tensor<1xf32>) : !llvm.array<1 x f32>
    %40 = llvm.mlir.constant(dense<-0.284748316> : tensor<1xf32>) : !llvm.array<1 x f32>
    %41 = llvm.mlir.constant(dense<-0.427536786> : tensor<1xf32>) : !llvm.array<1 x f32>
    %42 = llvm.mlir.constant(dense<-0.189828083> : tensor<1xf32>) : !llvm.array<1 x f32>
    %43 = llvm.mlir.constant(dense<-0.0358232893> : tensor<1xf32>) : !llvm.array<1 x f32>
    %44 = llvm.mlir.constant(dense<[[-0.0358232893], [-0.189828083], [-0.427536786], [-0.284748316], [-0.190349951]]> : tensor<5x1xf32>) : !llvm.array<5 x array<1 x f32>>
    %45 = llvm.mlir.constant(dense<-0.502286792> : tensor<1xf32>) : !llvm.array<1 x f32>
    %46 = llvm.mlir.constant(dense<-0.197532237> : tensor<1xf32>) : !llvm.array<1 x f32>
    %47 = llvm.mlir.constant(dense<-0.1207771> : tensor<1xf32>) : !llvm.array<1 x f32>
    %48 = llvm.mlir.constant(dense<-0.139150828> : tensor<1xf32>) : !llvm.array<1 x f32>
    %49 = llvm.mlir.constant(dense<0.0283765662> : tensor<1xf32>) : !llvm.array<1 x f32>
    %50 = llvm.mlir.constant(dense<[[0.0283765662], [-0.139150828], [-0.1207771], [-0.197532237], [-0.502286792]]> : tensor<5x1xf32>) : !llvm.array<5 x array<1 x f32>>
    %51 = llvm.mlir.constant(dense<0.133643404> : tensor<1xf32>) : !llvm.array<1 x f32>
    %52 = llvm.mlir.constant(dense<0.0477905162> : tensor<1xf32>) : !llvm.array<1 x f32>
    %53 = llvm.mlir.constant(dense<0.132555261> : tensor<1xf32>) : !llvm.array<1 x f32>
    %54 = llvm.mlir.constant(dense<0.19598189> : tensor<1xf32>) : !llvm.array<1 x f32>
    %55 = llvm.mlir.constant(dense<-0.118004493> : tensor<1xf32>) : !llvm.array<1 x f32>
    %56 = llvm.mlir.constant(dense<[[-0.118004493], [0.19598189], [0.132555261], [0.0477905162], [0.133643404]]> : tensor<5x1xf32>) : !llvm.array<5 x array<1 x f32>>
    %57 = llvm.mlir.constant(dense<0.567140698> : tensor<1xf32>) : !llvm.array<1 x f32>
    %58 = llvm.mlir.constant(dense<0.315170109> : tensor<1xf32>) : !llvm.array<1 x f32>
    %59 = llvm.mlir.constant(dense<0.195029944> : tensor<1xf32>) : !llvm.array<1 x f32>
    %60 = llvm.mlir.constant(dense<0.37648347> : tensor<1xf32>) : !llvm.array<1 x f32>
    %61 = llvm.mlir.constant(dense<0.165049568> : tensor<1xf32>) : !llvm.array<1 x f32>
    %62 = llvm.mlir.constant(dense<[[0.165049568], [0.37648347], [0.195029944], [0.315170109], [0.567140698]]> : tensor<5x1xf32>) : !llvm.array<5 x array<1 x f32>>
    %63 = llvm.mlir.constant(dense<0.339742184> : tensor<1xf32>) : !llvm.array<1 x f32>
    %64 = llvm.mlir.constant(dense<0.231606811> : tensor<1xf32>) : !llvm.array<1 x f32>
    %65 = llvm.mlir.constant(dense<0.0916861891> : tensor<1xf32>) : !llvm.array<1 x f32>
    %66 = llvm.mlir.constant(dense<-0.132004857> : tensor<1xf32>) : !llvm.array<1 x f32>
    %67 = llvm.mlir.constant(dense<-0.0220857374> : tensor<1xf32>) : !llvm.array<1 x f32>
    %68 = llvm.mlir.constant(dense<[[-0.0220857374], [-0.132004857], [0.0916861891], [0.231606811], [0.339742184]]> : tensor<5x1xf32>) : !llvm.array<5 x array<1 x f32>>
    %69 = llvm.mlir.constant(dense<[[[… > : tensor<5x5x1xf32>) : !llvm.array<5 x array<5 x array<1 x f32>>>
    %70 = llvm.mlir.constant(dense<-0.046182856> : tensor<1xf32>) : !llvm.array<1 x f32>
    %71 = llvm.mlir.constant(dense<0.134176537> : tensor<1xf32>) : !llvm.array<1 x f32>
    %72 = llvm.mlir.constant(dense<0.0708867609> : tensor<1xf32>) : !llvm.array<1 x f32>
    %73 = llvm.mlir.constant(dense<0.185796857> : tensor<1xf32>) : !llvm.array<1 x f32>
    %74 = llvm.mlir.constant(dense<0.348670721> : tensor<1xf32>) : !llvm.array<1 x f32>
    %75 = llvm.mlir.constant(dense<[[0.348670721], [0.185796857], [0.0708867609], [0.134176537], [-0.046182856]]> : tensor<5x1xf32>) : !llvm.array<5 x array<1 x f32>>
    %76 = llvm.mlir.constant(dense<-0.152028814> : tensor<1xf32>) : !llvm.array<1 x f32>
    %77 = llvm.mlir.constant(dense<-0.351678044> : tensor<1xf32>) : !llvm.array<1 x f32>
    %78 = llvm.mlir.constant(dense<-0.172314033> : tensor<1xf32>) : !llvm.array<1 x f32>
    %79 = llvm.mlir.constant(dense<0.11443112> : tensor<1xf32>) : !llvm.array<1 x f32>
    %80 = llvm.mlir.constant(dense<0.278054833> : tensor<1xf32>) : !llvm.array<1 x f32>
    %81 = llvm.mlir.constant(dense<[[0.278054833], [0.11443112], [-0.172314033], [-0.351678044], [-0.152028814]]> : tensor<5x1xf32>) : !llvm.array<5 x array<1 x f32>>
    %82 = llvm.mlir.constant(dense<-0.0895392373> : tensor<1xf32>) : !llvm.array<1 x f32>
    %83 = llvm.mlir.constant(dense<-0.303915501> : tensor<1xf32>) : !llvm.array<1 x f32>
    %84 = llvm.mlir.constant(dense<-0.457893401> : tensor<1xf32>) : !llvm.array<1 x f32>
    %85 = llvm.mlir.constant(dense<0.300013304> : tensor<1xf32>) : !llvm.array<1 x f32>
    %86 = llvm.mlir.constant(dense<0.414928794> : tensor<1xf32>) : !llvm.array<1 x f32>
    %87 = llvm.mlir.constant(dense<[[0.414928794], [0.300013304], [-0.457893401], [-0.303915501], [-0.0895392373]]> : tensor<5x1xf32>) : !llvm.array<5 x array<1 x f32>>
    %88 = llvm.mlir.constant(dense<-0.24754335> : tensor<1xf32>) : !llvm.array<1 x f32>
    %89 = llvm.mlir.constant(dense<-0.429202348> : tensor<1xf32>) : !llvm.array<1 x f32>
    %90 = llvm.mlir.constant(dense<-0.40767926> : tensor<1xf32>) : !llvm.array<1 x f32>
    %91 = llvm.mlir.constant(dense<0.487062603> : tensor<1xf32>) : !llvm.array<1 x f32>
    %92 = llvm.mlir.constant(dense<0.364409804> : tensor<1xf32>) : !llvm.array<1 x f32>
    %93 = llvm.mlir.constant(dense<[[0.364409804], [0.487062603], [-0.40767926], [-0.429202348], [-0.24754335]]> : tensor<5x1xf32>) : !llvm.array<5 x array<1 x f32>>
    %94 = llvm.mlir.constant(dense<-0.211825907> : tensor<1xf32>) : !llvm.array<1 x f32>
    %95 = llvm.mlir.constant(dense<-0.457677156> : tensor<1xf32>) : !llvm.array<1 x f32>
    %96 = llvm.mlir.constant(dense<-0.214432091> : tensor<1xf32>) : !llvm.array<1 x f32>
    %97 = llvm.mlir.constant(dense<0.55948472> : tensor<1xf32>) : !llvm.array<1 x f32>
    %98 = llvm.mlir.constant(dense<0.0979714915> : tensor<1xf32>) : !llvm.array<1 x f32>
    %99 = llvm.mlir.constant(dense<[[0.0979714915], [0.55948472], [-0.214432091], [-0.457677156], [-0.211825907]]> : tensor<5x1xf32>) : !llvm.array<5 x array<1 x f32>>
    %100 = llvm.mlir.constant(dense<[[[… > : tensor<5x5x1xf32>) : !llvm.array<5 x array<5 x array<1 x f32>>>
    %101 = llvm.mlir.constant(dense<0.223293051> : tensor<1xf32>) : !llvm.array<1 x f32>
    %102 = llvm.mlir.constant(dense<0.469151974> : tensor<1xf32>) : !llvm.array<1 x f32>
    %103 = llvm.mlir.constant(dense<0.236986041> : tensor<1xf32>) : !llvm.array<1 x f32>
    %104 = llvm.mlir.constant(dense<0.302853078> : tensor<1xf32>) : !llvm.array<1 x f32>
    %105 = llvm.mlir.constant(dense<0.0602269359> : tensor<1xf32>) : !llvm.array<1 x f32>
    %106 = llvm.mlir.constant(dense<[[0.0602269359], [0.302853078], [0.236986041], [0.469151974], [0.223293051]]> : tensor<5x1xf32>) : !llvm.array<5 x array<1 x f32>>
    %107 = llvm.mlir.constant(dense<-0.109559521> : tensor<1xf32>) : !llvm.array<1 x f32>
    %108 = llvm.mlir.constant(dense<0.129373759> : tensor<1xf32>) : !llvm.array<1 x f32>
    %109 = llvm.mlir.constant(dense<0.364784181> : tensor<1xf32>) : !llvm.array<1 x f32>
    %110 = llvm.mlir.constant(dense<0.65891546> : tensor<1xf32>) : !llvm.array<1 x f32>
    %111 = llvm.mlir.constant(dense<0.220150605> : tensor<1xf32>) : !llvm.array<1 x f32>
    %112 = llvm.mlir.constant(dense<[[0.220150605], [0.65891546], [0.364784181], [0.129373759], [-0.109559521]]> : tensor<5x1xf32>) : !llvm.array<5 x array<1 x f32>>
    %113 = llvm.mlir.constant(dense<-0.210915178> : tensor<1xf32>) : !llvm.array<1 x f32>
    %114 = llvm.mlir.constant(dense<-0.346534908> : tensor<1xf32>) : !llvm.array<1 x f32>
    %115 = llvm.mlir.constant(dense<-0.252293497> : tensor<1xf32>) : !llvm.array<1 x f32>
    %116 = llvm.mlir.constant(dense<0.346126974> : tensor<1xf32>) : !llvm.array<1 x f32>
    %117 = llvm.mlir.constant(dense<0.54028374> : tensor<1xf32>) : !llvm.array<1 x f32>
    %118 = llvm.mlir.constant(dense<[[0.54028374], [0.346126974], [-0.252293497], [-0.346534908], [-0.210915178]]> : tensor<5x1xf32>) : !llvm.array<5 x array<1 x f32>>
    %119 = llvm.mlir.constant(dense<-0.384224027> : tensor<1xf32>) : !llvm.array<1 x f32>
    %120 = llvm.mlir.constant(dense<-0.588267446> : tensor<1xf32>) : !llvm.array<1 x f32>
    %121 = llvm.mlir.constant(dense<-0.733280956> : tensor<1xf32>) : !llvm.array<1 x f32>
    %122 = llvm.mlir.constant(dense<-0.548081398> : tensor<1xf32>) : !llvm.array<1 x f32>
    %123 = llvm.mlir.constant(dense<0.182871103> : tensor<1xf32>) : !llvm.array<1 x f32>
    %124 = llvm.mlir.constant(dense<[[0.182871103], [-0.548081398], [-0.733280956], [-0.588267446], [-0.384224027]]> : tensor<5x1xf32>) : !llvm.array<5 x array<1 x f32>>
    %125 = llvm.mlir.constant(dense<0.1415748> : tensor<1xf32>) : !llvm.array<1 x f32>
    %126 = llvm.mlir.constant(dense<0.0534981377> : tensor<1xf32>) : !llvm.array<1 x f32>
    %127 = llvm.mlir.constant(dense<-0.191194415> : tensor<1xf32>) : !llvm.array<1 x f32>
    %128 = llvm.mlir.constant(dense<-0.333814532> : tensor<1xf32>) : !llvm.array<1 x f32>
    %129 = llvm.mlir.constant(dense<-0.16604583> : tensor<1xf32>) : !llvm.array<1 x f32>
    %130 = llvm.mlir.constant(dense<[[-0.16604583], [-0.333814532], [-0.191194415], [0.0534981377], [0.1415748]]> : tensor<5x1xf32>) : !llvm.array<5 x array<1 x f32>>
    %131 = llvm.mlir.constant(dense<[[[… > : tensor<5x5x1xf32>) : !llvm.array<5 x array<5 x array<1 x f32>>>
    %132 = llvm.mlir.constant(dense<0.236070529> : tensor<1xf32>) : !llvm.array<1 x f32>
    %133 = llvm.mlir.constant(dense<0.683263898> : tensor<1xf32>) : !llvm.array<1 x f32>
    %134 = llvm.mlir.constant(dense<0.625613272> : tensor<1xf32>) : !llvm.array<1 x f32>
    %135 = llvm.mlir.constant(dense<0.246114045> : tensor<1xf32>) : !llvm.array<1 x f32>
    %136 = llvm.mlir.constant(dense<0.0096962573> : tensor<1xf32>) : !llvm.array<1 x f32>
    %137 = llvm.mlir.constant(dense<[[0.0096962573], [0.246114045], [0.625613272], [0.683263898], [0.236070529]]> : tensor<5x1xf32>) : !llvm.array<5 x array<1 x f32>>
    %138 = llvm.mlir.constant(dense<-1.154940e-02> : tensor<1xf32>) : !llvm.array<1 x f32>
    %139 = llvm.mlir.constant(dense<0.0425989591> : tensor<1xf32>) : !llvm.array<1 x f32>
    %140 = llvm.mlir.constant(dense<0.276738822> : tensor<1xf32>) : !llvm.array<1 x f32>
    %141 = llvm.mlir.constant(dense<0.142096862> : tensor<1xf32>) : !llvm.array<1 x f32>
    %142 = llvm.mlir.constant(dense<-0.115562275> : tensor<1xf32>) : !llvm.array<1 x f32>
    %143 = llvm.mlir.constant(dense<[[-0.115562275], [0.142096862], [0.276738822], [0.0425989591], [-1.154940e-02]]> : tensor<5x1xf32>) : !llvm.array<5 x array<1 x f32>>
    %144 = llvm.mlir.constant(dense<-0.564055443> : tensor<1xf32>) : !llvm.array<1 x f32>
    %145 = llvm.mlir.constant(dense<-0.474924803> : tensor<1xf32>) : !llvm.array<1 x f32>
    %146 = llvm.mlir.constant(dense<-0.0144874975> : tensor<1xf32>) : !llvm.array<1 x f32>
    %147 = llvm.mlir.constant(dense<0.410431683> : tensor<1xf32>) : !llvm.array<1 x f32>
    %148 = llvm.mlir.constant(dense<-0.0602345765> : tensor<1xf32>) : !llvm.array<1 x f32>
    %149 = llvm.mlir.constant(dense<[[-0.0602345765], [0.410431683], [-0.0144874975], [-0.474924803], [-0.564055443]]> : tensor<5x1xf32>) : !llvm.array<5 x array<1 x f32>>
    %150 = llvm.mlir.constant(dense<-0.562098324> : tensor<1xf32>) : !llvm.array<1 x f32>
    %151 = llvm.mlir.constant(dense<-0.225653917> : tensor<1xf32>) : !llvm.array<1 x f32>
    %152 = llvm.mlir.constant(dense<-0.156348169> : tensor<1xf32>) : !llvm.array<1 x f32>
    %153 = llvm.mlir.constant(dense<0.204975918> : tensor<1xf32>) : !llvm.array<1 x f32>
    %154 = llvm.mlir.constant(dense<0.0890479981> : tensor<1xf32>) : !llvm.array<1 x f32>
    %155 = llvm.mlir.constant(dense<[[0.0890479981], [0.204975918], [-0.156348169], [-0.225653917], [-0.562098324]]> : tensor<5x1xf32>) : !llvm.array<5 x array<1 x f32>>
    %156 = llvm.mlir.constant(dense<-0.161164388> : tensor<1xf32>) : !llvm.array<1 x f32>
    %157 = llvm.mlir.constant(dense<-0.225739166> : tensor<1xf32>) : !llvm.array<1 x f32>
    %158 = llvm.mlir.constant(dense<-0.00238050893> : tensor<1xf32>) : !llvm.array<1 x f32>
    %159 = llvm.mlir.constant(dense<-0.122047886> : tensor<1xf32>) : !llvm.array<1 x f32>
    %160 = llvm.mlir.constant(dense<-0.214538753> : tensor<1xf32>) : !llvm.array<1 x f32>
    %161 = llvm.mlir.constant(dense<[[-0.214538753], [-0.122047886], [-0.00238050893], [-0.225739166], [-0.161164388]]> : tensor<5x1xf32>) : !llvm.array<5 x array<1 x f32>>
    %162 = llvm.mlir.constant(dense<[[[… > : tensor<5x5x1xf32>) : !llvm.array<5 x array<5 x array<1 x f32>>>
    %163 = llvm.mlir.constant(dense<0.340716898> : tensor<1xf32>) : !llvm.array<1 x f32>
    %164 = llvm.mlir.constant(dense<0.209222302> : tensor<1xf32>) : !llvm.array<1 x f32>
    %165 = llvm.mlir.constant(dense<0.0290652234> : tensor<1xf32>) : !llvm.array<1 x f32>
    %166 = llvm.mlir.constant(dense<0.351116359> : tensor<1xf32>) : !llvm.array<1 x f32>
    %167 = llvm.mlir.constant(dense<0.327519476> : tensor<1xf32>) : !llvm.array<1 x f32>
    %168 = llvm.mlir.constant(dense<[[0.327519476], [0.351116359], [0.0290652234], [0.209222302], [0.340716898]]> : tensor<5x1xf32>) : !llvm.array<5 x array<1 x f32>>
    %169 = llvm.mlir.constant(dense<0.181176141> : tensor<1xf32>) : !llvm.array<1 x f32>
    %170 = llvm.mlir.constant(dense<-0.0112002911> : tensor<1xf32>) : !llvm.array<1 x f32>
    %171 = llvm.mlir.constant(dense<0.219387263> : tensor<1xf32>) : !llvm.array<1 x f32>
    %172 = llvm.mlir.constant(dense<0.372037113> : tensor<1xf32>) : !llvm.array<1 x f32>
    %173 = llvm.mlir.constant(dense<0.0945404917> : tensor<1xf32>) : !llvm.array<1 x f32>
    %174 = llvm.mlir.constant(dense<[[0.0945404917], [0.372037113], [0.219387263], [-0.0112002911], [0.181176141]]> : tensor<5x1xf32>) : !llvm.array<5 x array<1 x f32>>
    %175 = llvm.mlir.constant(dense<0.22804907> : tensor<1xf32>) : !llvm.array<1 x f32>
    %176 = llvm.mlir.constant(dense<0.0424000174> : tensor<1xf32>) : !llvm.array<1 x f32>
    %177 = llvm.mlir.constant(dense<0.123266272> : tensor<1xf32>) : !llvm.array<1 x f32>
    %178 = llvm.mlir.constant(dense<-0.0235139672> : tensor<1xf32>) : !llvm.array<1 x f32>
    %179 = llvm.mlir.constant(dense<-0.391725898> : tensor<1xf32>) : !llvm.array<1 x f32>
    %180 = llvm.mlir.constant(dense<[[-0.391725898], [-0.0235139672], [0.123266272], [0.0424000174], [0.22804907]]> : tensor<5x1xf32>) : !llvm.array<5 x array<1 x f32>>
    %181 = llvm.mlir.constant(dense<0.161974356> : tensor<1xf32>) : !llvm.array<1 x f32>
    %182 = llvm.mlir.constant(dense<0.163738877> : tensor<1xf32>) : !llvm.array<1 x f32>
    %183 = llvm.mlir.constant(dense<-0.0575290471> : tensor<1xf32>) : !llvm.array<1 x f32>
    %184 = llvm.mlir.constant(dense<-0.210716203> : tensor<1xf32>) : !llvm.array<1 x f32>
    %185 = llvm.mlir.constant(dense<-0.476762861> : tensor<1xf32>) : !llvm.array<1 x f32>
    %186 = llvm.mlir.constant(dense<[[-0.476762861], [-0.210716203], [-0.0575290471], [0.163738877], [0.161974356]]> : tensor<5x1xf32>) : !llvm.array<5 x array<1 x f32>>
    %187 = llvm.mlir.constant(dense<-0.222431079> : tensor<1xf32>) : !llvm.array<1 x f32>
    %188 = llvm.mlir.constant(dense<-0.0792078748> : tensor<1xf32>) : !llvm.array<1 x f32>
    %189 = llvm.mlir.constant(dense<-0.327994585> : tensor<1xf32>) : !llvm.array<1 x f32>
    %190 = llvm.mlir.constant(dense<-0.3324157> : tensor<1xf32>) : !llvm.array<1 x f32>
    %191 = llvm.mlir.constant(dense<-0.295350224> : tensor<1xf32>) : !llvm.array<1 x f32>
    %192 = llvm.mlir.constant(dense<[[-0.295350224], [-0.3324157], [-0.327994585], [-0.0792078748], [-0.222431079]]> : tensor<5x1xf32>) : !llvm.array<5 x array<1 x f32>>
    %193 = llvm.mlir.constant(dense<[[[… > : tensor<5x5x1xf32>) : !llvm.array<5 x array<5 x array<1 x f32>>>
    %194 = llvm.mlir.constant(dense<-0.0635977536> : tensor<1xf32>) : !llvm.array<1 x f32>
    %195 = llvm.mlir.constant(dense<-0.146035776> : tensor<1xf32>) : !llvm.array<1 x f32>
    %196 = llvm.mlir.constant(dense<-0.349076539> : tensor<1xf32>) : !llvm.array<1 x f32>
    %197 = llvm.mlir.constant(dense<-0.333355874> : tensor<1xf32>) : !llvm.array<1 x f32>
    %198 = llvm.mlir.constant(dense<-0.198982805> : tensor<1xf32>) : !llvm.array<1 x f32>
    %199 = llvm.mlir.constant(dense<[[-0.198982805], [-0.333355874], [-0.349076539], [-0.146035776], [-0.0635977536]]> : tensor<5x1xf32>) : !llvm.array<5 x array<1 x f32>>
    %200 = llvm.mlir.constant(dense<-0.448451519> : tensor<1xf32>) : !llvm.array<1 x f32>
    %201 = llvm.mlir.constant(dense<-0.616779863> : tensor<1xf32>) : !llvm.array<1 x f32>
    %202 = llvm.mlir.constant(dense<-0.538212717> : tensor<1xf32>) : !llvm.array<1 x f32>
    %203 = llvm.mlir.constant(dense<-0.715617358> : tensor<1xf32>) : !llvm.array<1 x f32>
    %204 = llvm.mlir.constant(dense<-0.972681224> : tensor<1xf32>) : !llvm.array<1 x f32>
    %205 = llvm.mlir.constant(dense<[[-0.972681224], [-0.715617358], [-0.538212717], [-0.616779863], [-0.448451519]]> : tensor<5x1xf32>) : !llvm.array<5 x array<1 x f32>>
    %206 = llvm.mlir.constant(dense<-0.24677062> : tensor<1xf32>) : !llvm.array<1 x f32>
    %207 = llvm.mlir.constant(dense<-0.173562601> : tensor<1xf32>) : !llvm.array<1 x f32>
    %208 = llvm.mlir.constant(dense<-0.144524977> : tensor<1xf32>) : !llvm.array<1 x f32>
    %209 = llvm.mlir.constant(dense<-0.0759588853> : tensor<1xf32>) : !llvm.array<1 x f32>
    %210 = llvm.mlir.constant(dense<-0.469070703> : tensor<1xf32>) : !llvm.array<1 x f32>
    %211 = llvm.mlir.constant(dense<[[-0.469070703], [-0.0759588853], [-0.144524977], [-0.173562601], [-0.24677062]]> : tensor<5x1xf32>) : !llvm.array<5 x array<1 x f32>>
    %212 = llvm.mlir.constant(dense<0.243014947> : tensor<1xf32>) : !llvm.array<1 x f32>
    %213 = llvm.mlir.constant(dense<0.329410076> : tensor<1xf32>) : !llvm.array<1 x f32>
    %214 = llvm.mlir.constant(dense<0.384828448> : tensor<1xf32>) : !llvm.array<1 x f32>
    %215 = llvm.mlir.constant(dense<0.416999698> : tensor<1xf32>) : !llvm.array<1 x f32>
    %216 = llvm.mlir.constant(dense<0.334916532> : tensor<1xf32>) : !llvm.array<1 x f32>
    %217 = llvm.mlir.constant(dense<[[0.334916532], [0.416999698], [0.384828448], [0.329410076], [0.243014947]]> : tensor<5x1xf32>) : !llvm.array<5 x array<1 x f32>>
    %218 = llvm.mlir.constant(dense<0.690962493> : tensor<1xf32>) : !llvm.array<1 x f32>
    %219 = llvm.mlir.constant(dense<0.361771554> : tensor<1xf32>) : !llvm.array<1 x f32>
    %220 = llvm.mlir.constant(dense<0.253627211> : tensor<1xf32>) : !llvm.array<1 x f32>
    %221 = llvm.mlir.constant(dense<0.104505345> : tensor<1xf32>) : !llvm.array<1 x f32>
    %222 = llvm.mlir.constant(dense<-0.0236852393> : tensor<1xf32>) : !llvm.array<1 x f32>
    %223 = llvm.mlir.constant(dense<[[-0.0236852393], [0.104505345], [0.253627211], [0.361771554], [0.690962493]]> : tensor<5x1xf32>) : !llvm.array<5 x array<1 x f32>>
    %224 = llvm.mlir.constant(dense<[[[… > : tensor<5x5x1xf32>) : !llvm.array<5 x array<5 x array<1 x f32>>>
    %225 = llvm.mlir.constant(dense<0.28491208> : tensor<1xf32>) : !llvm.array<1 x f32>
    %226 = llvm.mlir.constant(dense<-0.0145607609> : tensor<1xf32>) : !llvm.array<1 x f32>
    %227 = llvm.mlir.constant(dense<-0.0662397072> : tensor<1xf32>) : !llvm.array<1 x f32>
    %228 = llvm.mlir.constant(dense<-0.229479596> : tensor<1xf32>) : !llvm.array<1 x f32>
    %229 = llvm.mlir.constant(dense<-0.3807818> : tensor<1xf32>) : !llvm.array<1 x f32>
    %230 = llvm.mlir.constant(dense<[[-0.3807818], [-0.229479596], [-0.0662397072], [-0.0145607609], [0.28491208]]> : tensor<5x1xf32>) : !llvm.array<5 x array<1 x f32>>
    %231 = llvm.mlir.constant(dense<3.327490e-01> : tensor<1xf32>) : !llvm.array<1 x f32>
    %232 = llvm.mlir.constant(dense<0.228037342> : tensor<1xf32>) : !llvm.array<1 x f32>
    %233 = llvm.mlir.constant(dense<-0.173695624> : tensor<1xf32>) : !llvm.array<1 x f32>
    %234 = llvm.mlir.constant(dense<-0.385716438> : tensor<1xf32>) : !llvm.array<1 x f32>
    %235 = llvm.mlir.constant(dense<-0.567676663> : tensor<1xf32>) : !llvm.array<1 x f32>
    %236 = llvm.mlir.constant(dense<[[-0.567676663], [-0.385716438], [-0.173695624], [0.228037342], [3.327490e-01]]> : tensor<5x1xf32>) : !llvm.array<5 x array<1 x f32>>
    %237 = llvm.mlir.constant(dense<0.372635573> : tensor<1xf32>) : !llvm.array<1 x f32>
    %238 = llvm.mlir.constant(dense<0.358995855> : tensor<1xf32>) : !llvm.array<1 x f32>
    %239 = llvm.mlir.constant(dense<-0.158985734> : tensor<1xf32>) : !llvm.array<1 x f32>
    %240 = llvm.mlir.constant(dense<-0.326697558> : tensor<1xf32>) : !llvm.array<1 x f32>
    %241 = llvm.mlir.constant(dense<-0.150837898> : tensor<1xf32>) : !llvm.array<1 x f32>
    %242 = llvm.mlir.constant(dense<[[-0.150837898], [-0.326697558], [-0.158985734], [0.358995855], [0.372635573]]> : tensor<5x1xf32>) : !llvm.array<5 x array<1 x f32>>
    %243 = llvm.mlir.constant(dense<0.40340957> : tensor<1xf32>) : !llvm.array<1 x f32>
    %244 = llvm.mlir.constant(dense<0.527172208> : tensor<1xf32>) : !llvm.array<1 x f32>
    %245 = llvm.mlir.constant(dense<-0.00439902628> : tensor<1xf32>) : !llvm.array<1 x f32>
    %246 = llvm.mlir.constant(dense<-0.276909471> : tensor<1xf32>) : !llvm.array<1 x f32>
    %247 = llvm.mlir.constant(dense<-0.101181731> : tensor<1xf32>) : !llvm.array<1 x f32>
    %248 = llvm.mlir.constant(dense<[[-0.101181731], [-0.276909471], [-0.00439902628], [0.527172208], [0.40340957]]> : tensor<5x1xf32>) : !llvm.array<5 x array<1 x f32>>
    %249 = llvm.mlir.constant(dense<0.0485477895> : tensor<1xf32>) : !llvm.array<1 x f32>
    %250 = llvm.mlir.constant(dense<0.423671782> : tensor<1xf32>) : !llvm.array<1 x f32>
    %251 = llvm.mlir.constant(dense<0.498727053> : tensor<1xf32>) : !llvm.array<1 x f32>
    %252 = llvm.mlir.constant(dense<0.218599811> : tensor<1xf32>) : !llvm.array<1 x f32>
    %253 = llvm.mlir.constant(dense<-0.039882347> : tensor<1xf32>) : !llvm.array<1 x f32>
    %254 = llvm.mlir.constant(dense<[[-0.039882347], [0.218599811], [0.498727053], [0.423671782], [0.0485477895]]> : tensor<5x1xf32>) : !llvm.array<5 x array<1 x f32>>
    %255 = llvm.mlir.constant(dense<[[[… > : tensor<5x5x1xf32>) : !llvm.array<5 x array<5 x array<1 x f32>>>
    %256 = llvm.mlir.constant(dense<-0.291704953> : tensor<1xf32>) : !llvm.array<1 x f32>
    %257 = llvm.mlir.constant(dense<-0.477194309> : tensor<1xf32>) : !llvm.array<1 x f32>
    %258 = llvm.mlir.constant(dense<-0.2185563> : tensor<1xf32>) : !llvm.array<1 x f32>
    %259 = llvm.mlir.constant(dense<0.226019308> : tensor<1xf32>) : !llvm.array<1 x f32>
    %260 = llvm.mlir.constant(dense<0.0384988487> : tensor<1xf32>) : !llvm.array<1 x f32>
    %261 = llvm.mlir.constant(dense<[[0.0384988487], [0.226019308], [-0.2185563], [-0.477194309], [-0.291704953]]> : tensor<5x1xf32>) : !llvm.array<5 x array<1 x f32>>
    %262 = llvm.mlir.constant(dense<-0.613179803> : tensor<1xf32>) : !llvm.array<1 x f32>
    %263 = llvm.mlir.constant(dense<-0.294741392> : tensor<1xf32>) : !llvm.array<1 x f32>
    %264 = llvm.mlir.constant(dense<0.592091262> : tensor<1xf32>) : !llvm.array<1 x f32>
    %265 = llvm.mlir.constant(dense<0.55754149> : tensor<1xf32>) : !llvm.array<1 x f32>
    %266 = llvm.mlir.constant(dense<-0.159536988> : tensor<1xf32>) : !llvm.array<1 x f32>
    %267 = llvm.mlir.constant(dense<[[-0.159536988], [0.55754149], [0.592091262], [-0.294741392], [-0.613179803]]> : tensor<5x1xf32>) : !llvm.array<5 x array<1 x f32>>
    %268 = llvm.mlir.constant(dense<-0.441664398> : tensor<1xf32>) : !llvm.array<1 x f32>
    %269 = llvm.mlir.constant(dense<0.554704189> : tensor<1xf32>) : !llvm.array<1 x f32>
    %270 = llvm.mlir.constant(dense<1.01896453> : tensor<1xf32>) : !llvm.array<1 x f32>
    %271 = llvm.mlir.constant(dense<0.0556176528> : tensor<1xf32>) : !llvm.array<1 x f32>
    %272 = llvm.mlir.constant(dense<-0.491763443> : tensor<1xf32>) : !llvm.array<1 x f32>
    %273 = llvm.mlir.constant(dense<[[-0.491763443], [0.0556176528], [1.01896453], [0.554704189], [-0.441664398]]> : tensor<5x1xf32>) : !llvm.array<5 x array<1 x f32>>
    %274 = llvm.mlir.constant(dense<0.263465196> : tensor<1xf32>) : !llvm.array<1 x f32>
    %275 = llvm.mlir.constant(dense<0.768215596> : tensor<1xf32>) : !llvm.array<1 x f32>
    %276 = llvm.mlir.constant(dense<-0.0493481457> : tensor<1xf32>) : !llvm.array<1 x f32>
    %277 = llvm.mlir.constant(dense<-0.475285381> : tensor<1xf32>) : !llvm.array<1 x f32>
    %278 = llvm.mlir.constant(dense<-0.591976165> : tensor<1xf32>) : !llvm.array<1 x f32>
    %279 = llvm.mlir.constant(dense<[[-0.591976165], [-0.475285381], [-0.0493481457], [0.768215596], [0.263465196]]> : tensor<5x1xf32>) : !llvm.array<5 x array<1 x f32>>
    %280 = llvm.mlir.constant(dense<0.141811848> : tensor<1xf32>) : !llvm.array<1 x f32>
    %281 = llvm.mlir.constant(dense<-0.0645617768> : tensor<1xf32>) : !llvm.array<1 x f32>
    %282 = llvm.mlir.constant(dense<-0.508821666> : tensor<1xf32>) : !llvm.array<1 x f32>
    %283 = llvm.mlir.constant(dense<-0.236907437> : tensor<1xf32>) : !llvm.array<1 x f32>
    %284 = llvm.mlir.constant(dense<-0.00890566967> : tensor<1xf32>) : !llvm.array<1 x f32>
    %285 = llvm.mlir.constant(dense<[[-0.00890566967], [-0.236907437], [-0.508821666], [-0.0645617768], [0.141811848]]> : tensor<5x1xf32>) : !llvm.array<5 x array<1 x f32>>
    %286 = llvm.mlir.constant(dense<[[[… > : tensor<5x5x1xf32>) : !llvm.array<5 x array<5 x array<1 x f32>>>
    %287 = llvm.mlir.constant(dense<"…"> : tensor<8x5x5x1xf32>) : !llvm.array<8 x array<5 x array<5 x array<1 x f32>>>>
    %288 = llvm.mlir.addressof @__constant_8x5x5x1xf32 : !llvm.ptr
    %289 = llvm.insertvalue %arg0, %0[0] : !llvm.struct<(ptr, ptr, i64, array<4 x i64>, array<4 x i64>)> 
    %290 = llvm.insertvalue %arg1, %289[1] : !llvm.struct<(ptr, ptr, i64, array<4 x i64>, array<4 x i64>)> 
    %291 = llvm.insertvalue %arg2, %290[2] : !llvm.struct<(ptr, ptr, i64, array<4 x i64>, array<4 x i64>)> 
    %292 = llvm.insertvalue %arg3, %291[3, 0] : !llvm.struct<(ptr, ptr, i64, array<4 x i64>, array<4 x i64>)> 
    %293 = llvm.insertvalue %arg7, %292[4, 0] : !llvm.struct<(ptr, ptr, i64, array<4 x i64>, array<4 x i64>)> 
    %294 = llvm.insertvalue %arg4, %293[3, 1] : !llvm.struct<(ptr, ptr, i64, array<4 x i64>, array<4 x i64>)> 
    %295 = llvm.insertvalue %arg8, %294[4, 1] : !llvm.struct<(ptr, ptr, i64, array<4 x i64>, array<4 x i64>)> 
    %296 = llvm.insertvalue %arg5, %295[3, 2] : !llvm.struct<(ptr, ptr, i64, array<4 x i64>, array<4 x i64>)> 
    %297 = llvm.insertvalue %arg9, %296[4, 2] : !llvm.struct<(ptr, ptr, i64, array<4 x i64>, array<4 x i64>)> 
    %298 = llvm.insertvalue %arg6, %297[3, 3] : !llvm.struct<(ptr, ptr, i64, array<4 x i64>, array<4 x i64>)> 
    %299 = llvm.insertvalue %arg10, %298[4, 3] : !llvm.struct<(ptr, ptr, i64, array<4 x i64>, array<4 x i64>)> 
    %300 = llvm.call @malloc(%6) : (i64) -> !llvm.ptr
    %301 = llvm.ptrtoint %300 : !llvm.ptr to i64
    %302 = llvm.add %301, %7 : i64
    %303 = llvm.urem %302, %1  : i64
    %304 = llvm.sub %302, %303 : i64
    %305 = llvm.inttoptr %304 : i64 to !llvm.ptr
    %306 = llvm.insertvalue %300, %0[0] : !llvm.struct<(ptr, ptr, i64, array<4 x i64>, array<4 x i64>)> 
    %307 = llvm.insertvalue %305, %306[1] : !llvm.struct<(ptr, ptr, i64, array<4 x i64>, array<4 x i64>)> 
    %308 = llvm.insertvalue %8, %307[2] : !llvm.struct<(ptr, ptr, i64, array<4 x i64>, array<4 x i64>)> 
    %309 = llvm.insertvalue %9, %308[3, 0] : !llvm.struct<(ptr, ptr, i64, array<4 x i64>, array<4 x i64>)> 
    %310 = llvm.insertvalue %9, %309[3, 1] : !llvm.struct<(ptr, ptr, i64, array<4 x i64>, array<4 x i64>)> 
    %311 = llvm.insertvalue %10, %310[3, 2] : !llvm.struct<(ptr, ptr, i64, array<4 x i64>, array<4 x i64>)> 
    %312 = llvm.insertvalue %10, %311[3, 3] : !llvm.struct<(ptr, ptr, i64, array<4 x i64>, array<4 x i64>)> 
    %313 = llvm.insertvalue %11, %312[4, 0] : !llvm.struct<(ptr, ptr, i64, array<4 x i64>, array<4 x i64>)> 
    %314 = llvm.insertvalue %11, %313[4, 1] : !llvm.struct<(ptr, ptr, i64, array<4 x i64>, array<4 x i64>)> 
    %315 = llvm.insertvalue %10, %314[4, 2] : !llvm.struct<(ptr, ptr, i64, array<4 x i64>, array<4 x i64>)> 
    %316 = llvm.insertvalue %9, %315[4, 3] : !llvm.struct<(ptr, ptr, i64, array<4 x i64>, array<4 x i64>)> 
    %317 = llvm.intr.stacksave : !llvm.ptr
    %318 = llvm.alloca %9 x !llvm.struct<(ptr, ptr, i64, array<4 x i64>, array<4 x i64>)> {alignment = 8 : i64} : (i64) -> !llvm.ptr
    llvm.store %299, %318 {alignment = 8 : i64} : !llvm.struct<(ptr, ptr, i64, array<4 x i64>, array<4 x i64>)>, !llvm.ptr
    %319 = llvm.insertvalue %318, %16[1] : !llvm.struct<(i64, ptr)> 
    %320 = llvm.alloca %9 x !llvm.struct<(ptr, ptr, i64, array<4 x i64>, array<4 x i64>)> {alignment = 8 : i64} : (i64) -> !llvm.ptr
    llvm.store %316, %320 {alignment = 8 : i64} : !llvm.struct<(ptr, ptr, i64, array<4 x i64>, array<4 x i64>)>, !llvm.ptr
    %321 = llvm.insertvalue %320, %16[1] : !llvm.struct<(i64, ptr)> 
    %322 = llvm.alloca %9 x !llvm.struct<(i64, ptr)> {alignment = 8 : i64} : (i64) -> !llvm.ptr
    llvm.store %319, %322 {alignment = 8 : i64} : !llvm.struct<(i64, ptr)>, !llvm.ptr
    %323 = llvm.alloca %9 x !llvm.struct<(i64, ptr)> {alignment = 8 : i64} : (i64) -> !llvm.ptr
    llvm.store %321, %323 {alignment = 8 : i64} : !llvm.struct<(i64, ptr)>, !llvm.ptr
    llvm.call @memrefCopy(%19, %322, %323) : (i64, !llvm.ptr, !llvm.ptr) -> ()
    llvm.intr.stackrestore %317 : !llvm.ptr
    %324 = llvm.insertvalue %300, %0[0] : !llvm.struct<(ptr, ptr, i64, array<4 x i64>, array<4 x i64>)> 
    %325 = llvm.insertvalue %305, %324[1] : !llvm.struct<(ptr, ptr, i64, array<4 x i64>, array<4 x i64>)> 
    %326 = llvm.insertvalue %8, %325[2] : !llvm.struct<(ptr, ptr, i64, array<4 x i64>, array<4 x i64>)> 
    %327 = llvm.insertvalue %9, %326[3, 0] : !llvm.struct<(ptr, ptr, i64, array<4 x i64>, array<4 x i64>)> 
    %328 = llvm.insertvalue %11, %327[4, 0] : !llvm.struct<(ptr, ptr, i64, array<4 x i64>, array<4 x i64>)> 
    %329 = llvm.insertvalue %10, %328[3, 1] : !llvm.struct<(ptr, ptr, i64, array<4 x i64>, array<4 x i64>)> 
    %330 = llvm.insertvalue %10, %329[4, 1] : !llvm.struct<(ptr, ptr, i64, array<4 x i64>, array<4 x i64>)> 
    %331 = llvm.insertvalue %10, %330[3, 2] : !llvm.struct<(ptr, ptr, i64, array<4 x i64>, array<4 x i64>)> 
    %332 = llvm.insertvalue %9, %331[4, 2] : !llvm.struct<(ptr, ptr, i64, array<4 x i64>, array<4 x i64>)> 
    %333 = llvm.insertvalue %9, %332[3, 3] : !llvm.struct<(ptr, ptr, i64, array<4 x i64>, array<4 x i64>)> 
    %334 = llvm.insertvalue %9, %333[4, 3] : !llvm.struct<(ptr, ptr, i64, array<4 x i64>, array<4 x i64>)> 
    %335 = llvm.call @malloc(%23) : (i64) -> !llvm.ptr
    %336 = llvm.ptrtoint %335 : !llvm.ptr to i64
    %337 = llvm.add %336, %7 : i64
    %338 = llvm.urem %337, %1  : i64
    %339 = llvm.sub %337, %338 : i64
    %340 = llvm.inttoptr %339 : i64 to !llvm.ptr
    llvm.br ^bb1(%8 : i64)
  ^bb1(%341: i64):  // 2 preds: ^bb0, ^bb2
    %342 = llvm.icmp "slt" %341, %24 : i64
    llvm.cond_br %342, ^bb2(%341 : i64), ^bb3
  ^bb2(%343: i64):  // pred: ^bb1
    %344 = llvm.add %343, %9 : i64
    %345 = llvm.srem %343, %26  : i64
    %346 = llvm.icmp "slt" %345, %8 : i64
    %347 = llvm.add %345, %26 : i64
    %348 = llvm.select %346, %347, %345 : i1, i64
    %349 = llvm.icmp "slt" %343, %8 : i64
    %350 = llvm.sub %33, %343 : i64
    %351 = llvm.select %349, %350, %343 : i1, i64
    %352 = llvm.sdiv %351, %26  : i64
    %353 = llvm.sub %33, %352 : i64
    %354 = llvm.select %349, %353, %352 : i1, i64
    %355 = llvm.mul %354, %26 : i64
    %356 = llvm.add %8, %355 : i64
    %357 = llvm.add %356, %348 : i64
    %358 = llvm.add %357, %8 : i64
    %359 = llvm.getelementptr %340[%358] : (!llvm.ptr, i64) -> !llvm.ptr, f32
    llvm.store %36, %359 {alignment = 4 : i64} : f32, !llvm.ptr
    llvm.br ^bb1(%344 : i64)
  ^bb3:  // pred: ^bb1
    %360 = llvm.insertvalue %335, %0[0] : !llvm.struct<(ptr, ptr, i64, array<4 x i64>, array<4 x i64>)> 
    %361 = llvm.insertvalue %340, %360[1] : !llvm.struct<(ptr, ptr, i64, array<4 x i64>, array<4 x i64>)> 
    %362 = llvm.insertvalue %25, %361[2] : !llvm.struct<(ptr, ptr, i64, array<4 x i64>, array<4 x i64>)> 
    %363 = llvm.insertvalue %9, %362[3, 0] : !llvm.struct<(ptr, ptr, i64, array<4 x i64>, array<4 x i64>)> 
    %364 = llvm.insertvalue %24, %363[4, 0] : !llvm.struct<(ptr, ptr, i64, array<4 x i64>, array<4 x i64>)> 
    %365 = llvm.insertvalue %10, %364[3, 1] : !llvm.struct<(ptr, ptr, i64, array<4 x i64>, array<4 x i64>)> 
    %366 = llvm.insertvalue %26, %365[4, 1] : !llvm.struct<(ptr, ptr, i64, array<4 x i64>, array<4 x i64>)> 
    %367 = llvm.insertvalue %10, %366[3, 2] : !llvm.struct<(ptr, ptr, i64, array<4 x i64>, array<4 x i64>)> 
    %368 = llvm.insertvalue %9, %367[4, 2] : !llvm.struct<(ptr, ptr, i64, array<4 x i64>, array<4 x i64>)> 
    %369 = llvm.insertvalue %9, %368[3, 3] : !llvm.struct<(ptr, ptr, i64, array<4 x i64>, array<4 x i64>)> 
    %370 = llvm.insertvalue %9, %369[4, 3] : !llvm.struct<(ptr, ptr, i64, array<4 x i64>, array<4 x i64>)> 
    %371 = llvm.intr.stacksave : !llvm.ptr
    %372 = llvm.alloca %9 x !llvm.struct<(ptr, ptr, i64, array<4 x i64>, array<4 x i64>)> {alignment = 8 : i64} : (i64) -> !llvm.ptr
    llvm.store %334, %372 {alignment = 8 : i64} : !llvm.struct<(ptr, ptr, i64, array<4 x i64>, array<4 x i64>)>, !llvm.ptr
    %373 = llvm.insertvalue %372, %16[1] : !llvm.struct<(i64, ptr)> 
    %374 = llvm.alloca %9 x !llvm.struct<(ptr, ptr, i64, array<4 x i64>, array<4 x i64>)> {alignment = 8 : i64} : (i64) -> !llvm.ptr
    llvm.store %370, %374 {alignment = 8 : i64} : !llvm.struct<(ptr, ptr, i64, array<4 x i64>, array<4 x i64>)>, !llvm.ptr
    %375 = llvm.insertvalue %374, %16[1] : !llvm.struct<(i64, ptr)> 
    %376 = llvm.alloca %9 x !llvm.struct<(i64, ptr)> {alignment = 8 : i64} : (i64) -> !llvm.ptr
    llvm.store %373, %376 {alignment = 8 : i64} : !llvm.struct<(i64, ptr)>, !llvm.ptr
    %377 = llvm.alloca %9 x !llvm.struct<(i64, ptr)> {alignment = 8 : i64} : (i64) -> !llvm.ptr
    llvm.store %375, %377 {alignment = 8 : i64} : !llvm.struct<(i64, ptr)>, !llvm.ptr
    llvm.call @memrefCopy(%19, %376, %377) : (i64, !llvm.ptr, !llvm.ptr) -> ()
    llvm.intr.stackrestore %371 : !llvm.ptr
    llvm.call @free(%300) : (!llvm.ptr) -> ()
    %378 = llvm.call @malloc(%30) : (i64) -> !llvm.ptr
    %379 = llvm.ptrtoint %378 : !llvm.ptr to i64
    %380 = llvm.add %379, %7 : i64
    %381 = llvm.urem %380, %1  : i64
    %382 = llvm.sub %380, %381 : i64
    %383 = llvm.inttoptr %382 : i64 to !llvm.ptr
    llvm.br ^bb4(%8 : i64)
  ^bb4(%384: i64):  // 2 preds: ^bb3, ^bb5
    %385 = llvm.icmp "slt" %384, %31 : i64
    llvm.cond_br %385, ^bb5(%384 : i64), ^bb6
  ^bb5(%386: i64):  // pred: ^bb4
    %387 = llvm.add %386, %9 : i64
    %388 = llvm.srem %386, %35  : i64
    %389 = llvm.icmp "slt" %388, %8 : i64
    %390 = llvm.add %388, %35 : i64
    %391 = llvm.select %389, %390, %388 : i1, i64
    %392 = llvm.icmp "slt" %386, %8 : i64
    %393 = llvm.sub %33, %386 : i64
    %394 = llvm.select %392, %393, %386 : i1, i64
    %395 = llvm.sdiv %394, %35  : i64
    %396 = llvm.sub %33, %395 : i64
    %397 = llvm.select %392, %396, %395 : i1, i64
    %398 = llvm.srem %397, %10  : i64
    %399 = llvm.icmp "slt" %398, %8 : i64
    %400 = llvm.add %398, %10 : i64
    %401 = llvm.select %399, %400, %398 : i1, i64
    %402 = llvm.icmp "slt" %397, %8 : i64
    %403 = llvm.sub %33, %397 : i64
    %404 = llvm.select %402, %403, %397 : i1, i64
    %405 = llvm.sdiv %404, %10  : i64
    %406 = llvm.sub %33, %405 : i64
    %407 = llvm.select %402, %406, %405 : i1, i64
    %408 = llvm.mul %407, %34 : i64
    %409 = llvm.add %8, %408 : i64
    %410 = llvm.mul %401, %35 : i64
    %411 = llvm.add %409, %410 : i64
    %412 = llvm.add %411, %391 : i64
    %413 = llvm.getelementptr %383[%412] : (!llvm.ptr, i64) -> !llvm.ptr, f32
    llvm.store %36, %413 {alignment = 4 : i64} : f32, !llvm.ptr
    llvm.br ^bb4(%387 : i64)
  ^bb6:  // pred: ^bb4
    llvm.br ^bb7(%8 : i64)
  ^bb7(%414: i64):  // 2 preds: ^bb6, ^bb11
    %415 = llvm.icmp "slt" %414, %31 : i64
    llvm.cond_br %415, ^bb8(%414 : i64), ^bb12
  ^bb8(%416: i64):  // pred: ^bb7
    %417 = llvm.add %416, %9 : i64
    %418 = llvm.srem %416, %35  : i64
    %419 = llvm.icmp "slt" %418, %8 : i64
    %420 = llvm.add %418, %35 : i64
    %421 = llvm.select %419, %420, %418 : i1, i64
    %422 = llvm.icmp "slt" %416, %8 : i64
    %423 = llvm.sub %33, %416 : i64
    %424 = llvm.select %422, %423, %416 : i1, i64
    %425 = llvm.sdiv %424, %35  : i64
    %426 = llvm.sub %33, %425 : i64
    %427 = llvm.select %422, %426, %425 : i1, i64
    %428 = llvm.srem %427, %10  : i64
    %429 = llvm.icmp "slt" %428, %8 : i64
    %430 = llvm.add %428, %10 : i64
    %431 = llvm.select %429, %430, %428 : i1, i64
    %432 = llvm.icmp "slt" %427, %8 : i64
    %433 = llvm.sub %33, %427 : i64
    %434 = llvm.select %432, %433, %427 : i1, i64
    %435 = llvm.sdiv %434, %10  : i64
    %436 = llvm.sub %33, %435 : i64
    %437 = llvm.select %432, %436, %435 : i1, i64
    %438 = llvm.mul %437, %34 : i64
    %439 = llvm.add %8, %438 : i64
    %440 = llvm.mul %431, %35 : i64
    %441 = llvm.add %439, %440 : i64
    %442 = llvm.add %441, %421 : i64
    %443 = llvm.getelementptr %383[%442] : (!llvm.ptr, i64) -> !llvm.ptr, f32
    llvm.store %36, %443 {alignment = 4 : i64} : f32, !llvm.ptr
    llvm.br ^bb9(%8 : i64)
  ^bb9(%444: i64):  // 2 preds: ^bb8, ^bb10
    %445 = llvm.icmp "slt" %444, %37 : i64
    llvm.cond_br %445, ^bb10(%444 : i64), ^bb11
  ^bb10(%446: i64):  // pred: ^bb9
    %447 = llvm.add %446, %9 : i64
    %448 = llvm.srem %446, %38  : i64
    %449 = llvm.icmp "slt" %448, %8 : i64
    %450 = llvm.add %448, %38 : i64
    %451 = llvm.select %449, %450, %448 : i1, i64
    %452 = llvm.icmp "slt" %446, %8 : i64
    %453 = llvm.sub %33, %446 : i64
    %454 = llvm.select %452, %453, %446 : i1, i64
    %455 = llvm.sdiv %454, %38  : i64
    %456 = llvm.sub %33, %455 : i64
    %457 = llvm.select %452, %456, %455 : i1, i64
    %458 = llvm.add %437, %457 : i64
    %459 = llvm.add %431, %451 : i64
    %460 = llvm.mul %458, %26 : i64
    %461 = llvm.add %8, %460 : i64
    %462 = llvm.add %461, %459 : i64
    %463 = llvm.add %462, %8 : i64
    %464 = llvm.getelementptr %340[%463] : (!llvm.ptr, i64) -> !llvm.ptr, f32
    %465 = llvm.load %464 {alignment = 4 : i64} : !llvm.ptr -> f32
    %466 = llvm.mul %421, %37 : i64
    %467 = llvm.mul %457, %38 : i64
    %468 = llvm.add %466, %467 : i64
    %469 = llvm.add %468, %451 : i64
    %470 = llvm.add %469, %8 : i64
    %471 = llvm.getelementptr %288[%470] : (!llvm.ptr, i64) -> !llvm.ptr, f32
    %472 = llvm.load %471 {alignment = 4 : i64} : !llvm.ptr -> f32
    %473 = llvm.load %443 {alignment = 4 : i64} : !llvm.ptr -> f32
    %474 = llvm.fmul %465, %472  : f32
    %475 = llvm.fadd %473, %474  : f32
    llvm.store %475, %443 {alignment = 4 : i64} : f32, !llvm.ptr
    llvm.br ^bb9(%447 : i64)
  ^bb11:  // pred: ^bb9
    llvm.br ^bb7(%417 : i64)
  ^bb12:  // pred: ^bb7
    llvm.call @free(%335) : (!llvm.ptr) -> ()
    %476 = llvm.call @malloc(%30) : (i64) -> !llvm.ptr
    %477 = llvm.ptrtoint %476 : !llvm.ptr to i64
    %478 = llvm.add %477, %7 : i64
    %479 = llvm.urem %478, %1  : i64
    %480 = llvm.sub %478, %479 : i64
    %481 = llvm.inttoptr %480 : i64 to !llvm.ptr
    llvm.br ^bb13(%8 : i64)
  ^bb13(%482: i64):  // 2 preds: ^bb12, ^bb14
    %483 = llvm.icmp "slt" %482, %31 : i64
    llvm.cond_br %483, ^bb14(%482 : i64), ^bb15
  ^bb14(%484: i64):  // pred: ^bb13
    %485 = llvm.add %484, %9 : i64
    %486 = llvm.srem %484, %10  : i64
    %487 = llvm.icmp "slt" %486, %8 : i64
    %488 = llvm.add %486, %10 : i64
    %489 = llvm.select %487, %488, %486 : i1, i64
    %490 = llvm.icmp "slt" %484, %8 : i64
    %491 = llvm.sub %33, %484 : i64
    %492 = llvm.select %490, %491, %484 : i1, i64
    %493 = llvm.sdiv %492, %10  : i64
    %494 = llvm.sub %33, %493 : i64
    %495 = llvm.select %490, %494, %493 : i1, i64
    %496 = llvm.srem %495, %10  : i64
    %497 = llvm.icmp "slt" %496, %8 : i64
    %498 = llvm.add %496, %10 : i64
    %499 = llvm.select %497, %498, %496 : i1, i64
    %500 = llvm.icmp "slt" %495, %8 : i64
    %501 = llvm.sub %33, %495 : i64
    %502 = llvm.select %500, %501, %495 : i1, i64
    %503 = llvm.sdiv %502, %10  : i64
    %504 = llvm.sub %33, %503 : i64
    %505 = llvm.select %500, %504, %503 : i1, i64
    %506 = llvm.mul %499, %34 : i64
    %507 = llvm.add %8, %506 : i64
    %508 = llvm.mul %489, %35 : i64
    %509 = llvm.add %507, %508 : i64
    %510 = llvm.add %509, %505 : i64
    %511 = llvm.getelementptr %383[%510] : (!llvm.ptr, i64) -> !llvm.ptr, f32
    %512 = llvm.load %511 {alignment = 4 : i64} : !llvm.ptr -> f32
    %513 = llvm.mul %505, %11 : i64
    %514 = llvm.add %8, %513 : i64
    %515 = llvm.mul %499, %10 : i64
    %516 = llvm.add %514, %515 : i64
    %517 = llvm.add %516, %489 : i64
    %518 = llvm.getelementptr %481[%517] : (!llvm.ptr, i64) -> !llvm.ptr, f32
    llvm.store %512, %518 {alignment = 4 : i64} : f32, !llvm.ptr
    llvm.br ^bb13(%485 : i64)
  ^bb15:  // pred: ^bb13
    llvm.call @free(%378) : (!llvm.ptr) -> ()
    %519 = llvm.getelementptr %arg12[%arg13] : (!llvm.ptr, i64) -> !llvm.ptr, f32
    "llvm.intr.memcpy"(%519, %481, %32) <{isVolatile = false}> : (!llvm.ptr, !llvm.ptr, i64) -> ()
    llvm.call @free(%476) : (!llvm.ptr) -> ()
    llvm.return
  }
}
