module attributes {builtin.gloabal_layout = "NCHW"} {
  func.func @main(%arg0: i64, %arg1: i64, %arg2: tensor<?x3x?x?xf32>) -> tensor<?x3x?x2xf32> {
    %0 = "llh.constant"() <{value = dense<2> : tensor<1xi64>}> : () -> tensor<1xi64>
    %1 = "llh.constant"() <{value = 2 : i64}> : () -> i64
    %2 = "llh.constant"() <{value = dense<5.33333302> : tensor<1xf32>}> : () -> tensor<1xf32>
    %3 = "llh.constant"() <{value = 5.33333302 : f32}> : () -> f32
    %4 = "llh.constant"() <{value = dense<"…"> : tensor<10x3x5x5xf32>}> : () -> tensor<10x3x5x5xf32>
    %5 = "llh.constant"() <{value = dense<[-0.0320920311, 0.0433704928, 9.360910e-02, 0.0713069215, -0.0478429124, -0.00947392825, -0.0204839315, -0.00776357297, -0.0055672545, 0.0398259647]> : tensor<10xf32>}> : () -> tensor<10xf32>
    %6 = "llh.constant"() <{value = dense<"…"> : tensor<3x10x5x5xf32>}> : () -> tensor<3x10x5x5xf32>
    %7 = "llh.constant"() <{value = dense<[-0.0411284156, -0.0327385403, 0.0489548258]> : tensor<3xf32>}> : () -> tensor<3xf32>
    %8 = "llh.constant"() <{value = dense<"…"> : tensor<2x110xf32>}> : () -> tensor<2x110xf32>
    %9 = "llh.constant"() <{value = dense<[0.00151246076, -0.0931972488]> : tensor<2xf32>}> : () -> tensor<2xf32>
    %10 = "llh.torch_symbolic_int"() <{sym_name = "s0"}> : () -> i64
    %11 = "llh.torch_symbolic_int"() <{sym_name = "s2"}> : () -> i64
    %12 = "llh.conv_bias"(%arg2, %4, %5) <{dilation = array<i64: 5, 5>, group = 1 : i64, kernel_shape = array<i64: 5, 5>, pad = array<i64: 2, 2, 2, 2>, stride = array<i64: 2, 2>}> : (tensor<?x3x?x?xf32>, tensor<10x3x5x5xf32>, tensor<10xf32>) -> tensor<?x10x?x?xf32>
    %13 = "llh.add"(%12, %12) : (tensor<?x10x?x?xf32>, tensor<?x10x?x?xf32>) -> tensor<?x10x?x?xf32>
    %14 = "llh.div"(%12, %2) : (tensor<?x10x?x?xf32>, tensor<1xf32>) -> tensor<?x10x?x?xf32>
    %15 = "llh.add"(%14, %13) : (tensor<?x10x?x?xf32>, tensor<?x10x?x?xf32>) -> tensor<?x10x?x?xf32>
    %16 = "llh.mul"(%14, %14) : (tensor<?x10x?x?xf32>, tensor<?x10x?x?xf32>) -> tensor<?x10x?x?xf32>
    %17 = "llh.add"(%15, %16) : (tensor<?x10x?x?xf32>, tensor<?x10x?x?xf32>) -> tensor<?x10x?x?xf32>
    %18 = "llh.add"(%17, %13) : (tensor<?x10x?x?xf32>, tensor<?x10x?x?xf32>) -> tensor<?x10x?x?xf32>
    %19 = "llh.conv_bias"(%18, %6, %7) <{dilation = array<i64: 1, 1>, group = 1 : i64, kernel_shape = array<i64: 5, 5>, pad = array<i64: 5, 5, 5, 5>, stride = array<i64: 1, 1>}> : (tensor<?x10x?x?xf32>, tensor<3x10x5x5xf32>, tensor<3xf32>) -> tensor<?x3x?x?xf32>
    %20 = "llh.mul"(%19, %19) : (tensor<?x3x?x?xf32>, tensor<?x3x?x?xf32>) -> tensor<?x3x?x?xf32>
    %21 = "llh.add"(%19, %20) : (tensor<?x3x?x?xf32>, tensor<?x3x?x?xf32>) -> tensor<?x3x?x?xf32>
    %22 = "llh.div"(%19, %0) : (tensor<?x3x?x?xf32>, tensor<1xi64>) -> tensor<?x3x?x?xf32>
    %23 = "llh.add"(%21, %22) : (tensor<?x3x?x?xf32>, tensor<?x3x?x?xf32>) -> tensor<?x3x?x?xf32>
    %24 = "llh.transpose"(%8) <{perms = array<i64: 1, 0>}> : (tensor<2x110xf32>) -> tensor<110x2xf32>
    %25 = "llh.matmul"(%23, %24) : (tensor<?x3x?x?xf32>, tensor<110x2xf32>) -> tensor<?x3x?x2xf32>
    %26 = "llh.add"(%25, %9) : (tensor<?x3x?x2xf32>, tensor<2xf32>) -> tensor<?x3x?x2xf32>
    return %26 : tensor<?x3x?x2xf32>
  }
}

