// -----// IR Dump After ConvertControlFlowToLLVMPass (convert-cf-to-llvm) //----- //
module attributes {builtin.gloabal_layout = "NCHW"} {
  memref.global "private" constant @__constant_1x10xf32 : memref<1x10xf32> = dense<[[-0.0448560268, 0.00779166119, 0.0681008175, 0.0299937408, -0.126409635, 0.14021875, -0.0552849025, -0.0493838154, 0.0843220502, -0.0545404144]]> {alignment = 64 : i64}
  memref.global "private" constant @__constant_1x256x10xf32 : memref<1x256x10xf32> = dense<"…"> {alignment = 64 : i64}
  memref.global "private" constant @__constant_8x5x5x1xf32 : memref<8x5x5x1xf32> = dense<"…"> {alignment = 64 : i64}
  memref.global "private" constant @__constant_1x8x1x1xf32 : memref<1x8x1x1xf32> = dense<[[[[-0.161539719]], [[-0.433835655]], [[0.091641359]], [[-0.0168522168]], [[-0.0650264397]], [[-0.131737873]], [[0.0204175506]], [[-0.121110231]]]]> {alignment = 64 : i64}
  memref.global "private" constant @__constant_1x16x1x1xf32 : memref<1x16x1x1xf32> = dense<[[[[… > {alignment = 64 : i64}
  memref.global "private" constant @__constant_16x5x5x8xf32 : memref<16x5x5x8xf32> = dense<"…"> {alignment = 64 : i64}
  llvm.func @CNTKGraph(%arg0: !llvm.ptr, %arg1: !llvm.ptr, %arg2: i64, %arg3: i64, %arg4: i64, %arg5: i64, %arg6: i64, %arg7: i64, %arg8: i64, %arg9: i64, %arg10: i64, %arg11: !llvm.ptr, %arg12: !llvm.ptr, %arg13: i64, %arg14: i64, %arg15: i64, %arg16: i64, %arg17: i64) {
    %0 = llvm.mlir.undef : !llvm.struct<(ptr, ptr, i64, array<2 x i64>, array<2 x i64>)>
    %1 = llvm.insertvalue %arg11, %0[0] : !llvm.struct<(ptr, ptr, i64, array<2 x i64>, array<2 x i64>)> 
    %2 = llvm.insertvalue %arg12, %1[1] : !llvm.struct<(ptr, ptr, i64, array<2 x i64>, array<2 x i64>)> 
    %3 = llvm.insertvalue %arg13, %2[2] : !llvm.struct<(ptr, ptr, i64, array<2 x i64>, array<2 x i64>)> 
    %4 = llvm.insertvalue %arg14, %3[3, 0] : !llvm.struct<(ptr, ptr, i64, array<2 x i64>, array<2 x i64>)> 
    %5 = llvm.insertvalue %arg16, %4[4, 0] : !llvm.struct<(ptr, ptr, i64, array<2 x i64>, array<2 x i64>)> 
    %6 = llvm.insertvalue %arg15, %5[3, 1] : !llvm.struct<(ptr, ptr, i64, array<2 x i64>, array<2 x i64>)> 
    %7 = llvm.insertvalue %arg17, %6[4, 1] : !llvm.struct<(ptr, ptr, i64, array<2 x i64>, array<2 x i64>)> 
    %8 = builtin.unrealized_conversion_cast %7 : !llvm.struct<(ptr, ptr, i64, array<2 x i64>, array<2 x i64>)> to memref<1x10xf32>
    %9 = builtin.unrealized_conversion_cast %8 : memref<1x10xf32> to !llvm.struct<(ptr, ptr, i64, array<2 x i64>, array<2 x i64>)>
    %10 = llvm.mlir.undef : !llvm.struct<(ptr, ptr, i64, array<4 x i64>, array<4 x i64>)>
    %11 = llvm.insertvalue %arg0, %10[0] : !llvm.struct<(ptr, ptr, i64, array<4 x i64>, array<4 x i64>)> 
    %12 = llvm.insertvalue %arg1, %11[1] : !llvm.struct<(ptr, ptr, i64, array<4 x i64>, array<4 x i64>)> 
    %13 = llvm.insertvalue %arg2, %12[2] : !llvm.struct<(ptr, ptr, i64, array<4 x i64>, array<4 x i64>)> 
    %14 = llvm.insertvalue %arg3, %13[3, 0] : !llvm.struct<(ptr, ptr, i64, array<4 x i64>, array<4 x i64>)> 
    %15 = llvm.insertvalue %arg7, %14[4, 0] : !llvm.struct<(ptr, ptr, i64, array<4 x i64>, array<4 x i64>)> 
    %16 = llvm.insertvalue %arg4, %15[3, 1] : !llvm.struct<(ptr, ptr, i64, array<4 x i64>, array<4 x i64>)> 
    %17 = llvm.insertvalue %arg8, %16[4, 1] : !llvm.struct<(ptr, ptr, i64, array<4 x i64>, array<4 x i64>)> 
    %18 = llvm.insertvalue %arg5, %17[3, 2] : !llvm.struct<(ptr, ptr, i64, array<4 x i64>, array<4 x i64>)> 
    %19 = llvm.insertvalue %arg9, %18[4, 2] : !llvm.struct<(ptr, ptr, i64, array<4 x i64>, array<4 x i64>)> 
    %20 = llvm.insertvalue %arg6, %19[3, 3] : !llvm.struct<(ptr, ptr, i64, array<4 x i64>, array<4 x i64>)> 
    %21 = llvm.insertvalue %arg10, %20[4, 3] : !llvm.struct<(ptr, ptr, i64, array<4 x i64>, array<4 x i64>)> 
    %22 = builtin.unrealized_conversion_cast %21 : !llvm.struct<(ptr, ptr, i64, array<4 x i64>, array<4 x i64>)> to memref<1x1x28x28xf32, strided<[?, ?, ?, ?], offset: ?>>
    %23 = builtin.unrealized_conversion_cast %22 : memref<1x1x28x28xf32, strided<[?, ?, ?, ?], offset: ?>> to !llvm.struct<(ptr, ptr, i64, array<4 x i64>, array<4 x i64>)>
    %24 = llvm.mlir.constant(-3.40282347E+38 : f32) : f32
    %25 = llvm.mlir.constant(0.000000e+00 : f32) : f32
    %26 = llvm.mlir.constant(0 : index) : i64
    %27 = builtin.unrealized_conversion_cast %26 : i64 to index
    %28 = llvm.mlir.constant(1024 : index) : i64
    %29 = llvm.mlir.constant(1 : index) : i64
    %30 = llvm.mlir.constant(32 : index) : i64
    %31 = llvm.mlir.constant(-1 : index) : i64
    %32 = llvm.mlir.constant(6272 : index) : i64
    %33 = llvm.mlir.constant(8 : index) : i64
    %34 = llvm.mlir.constant(28 : index) : i64
    %35 = llvm.mlir.constant(25 : index) : i64
    %36 = llvm.mlir.constant(5 : index) : i64
    %37 = llvm.mlir.constant(1568 : index) : i64
    %38 = llvm.mlir.constant(14 : index) : i64
    %39 = llvm.mlir.constant(4 : index) : i64
    %40 = llvm.mlir.constant(2 : index) : i64
    %41 = llvm.mlir.constant(2592 : index) : i64
    %42 = llvm.mlir.constant(18 : index) : i64
    %43 = llvm.mlir.constant(3136 : index) : i64
    %44 = llvm.mlir.constant(16 : index) : i64
    %45 = llvm.mlir.constant(200 : index) : i64
    %46 = llvm.mlir.constant(256 : index) : i64
    %47 = llvm.mlir.constant(9 : index) : i64
    %48 = llvm.mlir.constant(3 : index) : i64
    %49 = llvm.mlir.constant(10 : index) : i64
    %50 = memref.get_global @__constant_16x5x5x8xf32 : memref<16x5x5x8xf32>
    %51 = memref.get_global @__constant_1x16x1x1xf32 : memref<1x16x1x1xf32>
    %52 = memref.get_global @__constant_1x8x1x1xf32 : memref<1x8x1x1xf32>
    %53 = memref.get_global @__constant_8x5x5x1xf32 : memref<8x5x5x1xf32>
    %54 = memref.get_global @__constant_1x256x10xf32 : memref<1x256x10xf32>
    %55 = memref.get_global @__constant_1x10xf32 : memref<1x10xf32>
    %alloc = memref.alloc() {alignment = 64 : i64} : memref<1x1x28x28xf32>
    memref.copy %22, %alloc : memref<1x1x28x28xf32, strided<[?, ?, ?, ?], offset: ?>> to memref<1x1x28x28xf32>
    %reinterpret_cast = memref.reinterpret_cast %alloc to offset: [0], sizes: [1, 28, 28, 1], strides: [784, 28, 1, 1] : memref<1x1x28x28xf32> to memref<1x28x28x1xf32>
    %alloc_0 = memref.alloc() {alignment = 64 : i64} : memref<1x32x32x1xf32>
    llvm.br ^bb1(%26 : i64)
  ^bb1(%56: i64):  // 2 preds: ^bb0, ^bb2
    %57 = llvm.icmp "slt" %56, %28 : i64
    llvm.cond_br %57, ^bb2, ^bb3
  ^bb2:  // pred: ^bb1
    %58 = llvm.srem %56, %30  : i64
    %59 = llvm.icmp "slt" %58, %26 : i64
    %60 = llvm.add %58, %30 : i64
    %61 = llvm.select %59, %60, %58 : i1, i64
    %62 = builtin.unrealized_conversion_cast %61 : i64 to index
    %63 = llvm.icmp "slt" %56, %26 : i64
    %64 = llvm.sub %31, %56 : i64
    %65 = llvm.select %63, %64, %56 : i1, i64
    %66 = llvm.sdiv %65, %30  : i64
    %67 = llvm.sub %31, %66 : i64
    %68 = llvm.select %63, %67, %66 : i1, i64
    %69 = llvm.srem %68, %30  : i64
    %70 = llvm.icmp "slt" %69, %26 : i64
    %71 = llvm.add %69, %30 : i64
    %72 = llvm.select %70, %71, %69 : i1, i64
    %73 = builtin.unrealized_conversion_cast %72 : i64 to index
    %74 = llvm.icmp "slt" %56, %26 : i64
    %75 = llvm.sub %31, %56 : i64
    %76 = llvm.select %74, %75, %56 : i1, i64
    %77 = llvm.sdiv %76, %30  : i64
    %78 = llvm.sub %31, %77 : i64
    %79 = llvm.select %74, %78, %77 : i1, i64
    %80 = llvm.icmp "slt" %79, %26 : i64
    %81 = llvm.sub %31, %79 : i64
    %82 = llvm.select %80, %81, %79 : i1, i64
    %83 = llvm.sdiv %82, %30  : i64
    %84 = llvm.sub %31, %83 : i64
    %85 = llvm.select %80, %84, %83 : i1, i64
    %86 = builtin.unrealized_conversion_cast %85 : i64 to index
    memref.store %25, %alloc_0[%86, %73, %62, %27] : memref<1x32x32x1xf32>
    %87 = llvm.add %56, %29 : i64
    llvm.br ^bb1(%87 : i64)
  ^bb3:  // pred: ^bb1
    %reinterpret_cast_1 = memref.reinterpret_cast %alloc_0 to offset: [66], sizes: [1, 28, 28, 1], strides: [1024, 32, 1, 1] : memref<1x32x32x1xf32> to memref<1x28x28x1xf32, strided<[1024, 32, 1, 1], offset: 66>>
    memref.copy %reinterpret_cast, %reinterpret_cast_1 : memref<1x28x28x1xf32> to memref<1x28x28x1xf32, strided<[1024, 32, 1, 1], offset: 66>>
    memref.dealloc %alloc : memref<1x1x28x28xf32>
    %alloc_2 = memref.alloc() {alignment = 64 : i64} : memref<1x28x28x8xf32>
    llvm.br ^bb4(%26 : i64)
  ^bb4(%88: i64):  // 2 preds: ^bb3, ^bb5
    %89 = llvm.icmp "slt" %88, %32 : i64
    llvm.cond_br %89, ^bb5, ^bb6
  ^bb5:  // pred: ^bb4
    %90 = llvm.srem %88, %33  : i64
    %91 = llvm.icmp "slt" %90, %26 : i64
    %92 = llvm.add %90, %33 : i64
    %93 = llvm.select %91, %92, %90 : i1, i64
    %94 = builtin.unrealized_conversion_cast %93 : i64 to index
    %95 = llvm.icmp "slt" %88, %26 : i64
    %96 = llvm.sub %31, %88 : i64
    %97 = llvm.select %95, %96, %88 : i1, i64
    %98 = llvm.sdiv %97, %33  : i64
    %99 = llvm.sub %31, %98 : i64
    %100 = llvm.select %95, %99, %98 : i1, i64
    %101 = llvm.srem %100, %34  : i64
    %102 = llvm.icmp "slt" %101, %26 : i64
    %103 = llvm.add %101, %34 : i64
    %104 = llvm.select %102, %103, %101 : i1, i64
    %105 = builtin.unrealized_conversion_cast %104 : i64 to index
    %106 = llvm.icmp "slt" %88, %26 : i64
    %107 = llvm.sub %31, %88 : i64
    %108 = llvm.select %106, %107, %88 : i1, i64
    %109 = llvm.sdiv %108, %33  : i64
    %110 = llvm.sub %31, %109 : i64
    %111 = llvm.select %106, %110, %109 : i1, i64
    %112 = llvm.icmp "slt" %111, %26 : i64
    %113 = llvm.sub %31, %111 : i64
    %114 = llvm.select %112, %113, %111 : i1, i64
    %115 = llvm.sdiv %114, %34  : i64
    %116 = llvm.sub %31, %115 : i64
    %117 = llvm.select %112, %116, %115 : i1, i64
    %118 = llvm.srem %117, %34  : i64
    %119 = llvm.icmp "slt" %118, %26 : i64
    %120 = llvm.add %118, %34 : i64
    %121 = llvm.select %119, %120, %118 : i1, i64
    %122 = builtin.unrealized_conversion_cast %121 : i64 to index
    %123 = llvm.icmp "slt" %88, %26 : i64
    %124 = llvm.sub %31, %88 : i64
    %125 = llvm.select %123, %124, %88 : i1, i64
    %126 = llvm.sdiv %125, %33  : i64
    %127 = llvm.sub %31, %126 : i64
    %128 = llvm.select %123, %127, %126 : i1, i64
    %129 = llvm.icmp "slt" %128, %26 : i64
    %130 = llvm.sub %31, %128 : i64
    %131 = llvm.select %129, %130, %128 : i1, i64
    %132 = llvm.sdiv %131, %34  : i64
    %133 = llvm.sub %31, %132 : i64
    %134 = llvm.select %129, %133, %132 : i1, i64
    %135 = llvm.icmp "slt" %134, %26 : i64
    %136 = llvm.sub %31, %134 : i64
    %137 = llvm.select %135, %136, %134 : i1, i64
    %138 = llvm.sdiv %137, %34  : i64
    %139 = llvm.sub %31, %138 : i64
    %140 = llvm.select %135, %139, %138 : i1, i64
    %141 = builtin.unrealized_conversion_cast %140 : i64 to index
    memref.store %25, %alloc_2[%141, %122, %105, %94] : memref<1x28x28x8xf32>
    %142 = llvm.add %88, %29 : i64
    llvm.br ^bb4(%142 : i64)
  ^bb6:  // pred: ^bb4
    llvm.br ^bb7(%26 : i64)
  ^bb7(%143: i64):  // 2 preds: ^bb6, ^bb11
    %144 = llvm.icmp "slt" %143, %32 : i64
    llvm.cond_br %144, ^bb8, ^bb12
  ^bb8:  // pred: ^bb7
    %145 = llvm.srem %143, %33  : i64
    %146 = llvm.icmp "slt" %145, %26 : i64
    %147 = llvm.add %145, %33 : i64
    %148 = llvm.select %146, %147, %145 : i1, i64
    %149 = builtin.unrealized_conversion_cast %148 : i64 to index
    %150 = llvm.icmp "slt" %143, %26 : i64
    %151 = llvm.sub %31, %143 : i64
    %152 = llvm.select %150, %151, %143 : i1, i64
    %153 = llvm.sdiv %152, %33  : i64
    %154 = llvm.sub %31, %153 : i64
    %155 = llvm.select %150, %154, %153 : i1, i64
    %156 = llvm.srem %155, %34  : i64
    %157 = llvm.icmp "slt" %156, %26 : i64
    %158 = llvm.add %156, %34 : i64
    %159 = llvm.select %157, %158, %156 : i1, i64
    %160 = builtin.unrealized_conversion_cast %159 : i64 to index
    %161 = llvm.icmp "slt" %143, %26 : i64
    %162 = llvm.sub %31, %143 : i64
    %163 = llvm.select %161, %162, %143 : i1, i64
    %164 = llvm.sdiv %163, %33  : i64
    %165 = llvm.sub %31, %164 : i64
    %166 = llvm.select %161, %165, %164 : i1, i64
    %167 = llvm.icmp "slt" %166, %26 : i64
    %168 = llvm.sub %31, %166 : i64
    %169 = llvm.select %167, %168, %166 : i1, i64
    %170 = llvm.sdiv %169, %34  : i64
    %171 = llvm.sub %31, %170 : i64
    %172 = llvm.select %167, %171, %170 : i1, i64
    %173 = llvm.srem %172, %34  : i64
    %174 = llvm.icmp "slt" %173, %26 : i64
    %175 = llvm.add %173, %34 : i64
    %176 = llvm.select %174, %175, %173 : i1, i64
    %177 = builtin.unrealized_conversion_cast %176 : i64 to index
    %178 = llvm.icmp "slt" %143, %26 : i64
    %179 = llvm.sub %31, %143 : i64
    %180 = llvm.select %178, %179, %143 : i1, i64
    %181 = llvm.sdiv %180, %33  : i64
    %182 = llvm.sub %31, %181 : i64
    %183 = llvm.select %178, %182, %181 : i1, i64
    %184 = llvm.icmp "slt" %183, %26 : i64
    %185 = llvm.sub %31, %183 : i64
    %186 = llvm.select %184, %185, %183 : i1, i64
    %187 = llvm.sdiv %186, %34  : i64
    %188 = llvm.sub %31, %187 : i64
    %189 = llvm.select %184, %188, %187 : i1, i64
    %190 = llvm.icmp "slt" %189, %26 : i64
    %191 = llvm.sub %31, %189 : i64
    %192 = llvm.select %190, %191, %189 : i1, i64
    %193 = llvm.sdiv %192, %34  : i64
    %194 = llvm.sub %31, %193 : i64
    %195 = llvm.select %190, %194, %193 : i1, i64
    %196 = builtin.unrealized_conversion_cast %195 : i64 to index
    memref.store %25, %alloc_2[%27, %177, %160, %149] : memref<1x28x28x8xf32>
    llvm.br ^bb9(%26 : i64)
  ^bb9(%197: i64):  // 2 preds: ^bb8, ^bb10
    %198 = llvm.icmp "slt" %197, %35 : i64
    llvm.cond_br %198, ^bb10(%197 : i64), ^bb11
  ^bb10(%199: i64):  // pred: ^bb9
    %200 = llvm.add %199, %29 : i64
    %201 = llvm.srem %199, %36  : i64
    %202 = llvm.icmp "slt" %201, %26 : i64
    %203 = llvm.add %201, %36 : i64
    %204 = llvm.select %202, %203, %201 : i1, i64
    %205 = builtin.unrealized_conversion_cast %204 : i64 to index
    %206 = llvm.icmp "slt" %199, %26 : i64
    %207 = llvm.sub %31, %199 : i64
    %208 = llvm.select %206, %207, %199 : i1, i64
    %209 = llvm.sdiv %208, %36  : i64
    %210 = llvm.sub %31, %209 : i64
    %211 = llvm.select %206, %210, %209 : i1, i64
    %212 = builtin.unrealized_conversion_cast %211 : i64 to index
    %213 = llvm.add %176, %211 : i64
    %214 = builtin.unrealized_conversion_cast %213 : i64 to index
    %215 = llvm.add %159, %204 : i64
    %216 = builtin.unrealized_conversion_cast %215 : i64 to index
    %217 = memref.load %alloc_0[%196, %214, %216, %27] : memref<1x32x32x1xf32>
    %218 = memref.load %53[%149, %212, %205, %27] : memref<8x5x5x1xf32>
    %219 = memref.load %alloc_2[%196, %177, %160, %149] : memref<1x28x28x8xf32>
    %220 = llvm.fmul %217, %218  : f32
    %221 = llvm.fadd %219, %220  : f32
    memref.store %221, %alloc_2[%196, %177, %160, %149] : memref<1x28x28x8xf32>
    llvm.br ^bb9(%200 : i64)
  ^bb11:  // pred: ^bb9
    %222 = llvm.add %143, %29 : i64
    llvm.br ^bb7(%222 : i64)
  ^bb12:  // pred: ^bb7
    memref.dealloc %alloc_0 : memref<1x32x32x1xf32>
    %alloc_3 = memref.alloc() {alignment = 64 : i64} : memref<1x14x14x8xf32>
    llvm.br ^bb13(%26 : i64)
  ^bb13(%223: i64):  // 2 preds: ^bb12, ^bb17
    %224 = llvm.icmp "slt" %223, %37 : i64
    llvm.cond_br %224, ^bb14, ^bb18
  ^bb14:  // pred: ^bb13
    %225 = llvm.srem %223, %33  : i64
    %226 = llvm.icmp "slt" %225, %26 : i64
    %227 = llvm.add %225, %33 : i64
    %228 = llvm.select %226, %227, %225 : i1, i64
    %229 = builtin.unrealized_conversion_cast %228 : i64 to index
    %230 = llvm.icmp "slt" %223, %26 : i64
    %231 = llvm.sub %31, %223 : i64
    %232 = llvm.select %230, %231, %223 : i1, i64
    %233 = llvm.sdiv %232, %33  : i64
    %234 = llvm.sub %31, %233 : i64
    %235 = llvm.select %230, %234, %233 : i1, i64
    %236 = llvm.srem %235, %38  : i64
    %237 = llvm.icmp "slt" %236, %26 : i64
    %238 = llvm.add %236, %38 : i64
    %239 = llvm.select %237, %238, %236 : i1, i64
    %240 = builtin.unrealized_conversion_cast %239 : i64 to index
    %241 = llvm.icmp "slt" %223, %26 : i64
    %242 = llvm.sub %31, %223 : i64
    %243 = llvm.select %241, %242, %223 : i1, i64
    %244 = llvm.sdiv %243, %33  : i64
    %245 = llvm.sub %31, %244 : i64
    %246 = llvm.select %241, %245, %244 : i1, i64
    %247 = llvm.icmp "slt" %246, %26 : i64
    %248 = llvm.sub %31, %246 : i64
    %249 = llvm.select %247, %248, %246 : i1, i64
    %250 = llvm.sdiv %249, %38  : i64
    %251 = llvm.sub %31, %250 : i64
    %252 = llvm.select %247, %251, %250 : i1, i64
    %253 = llvm.srem %252, %38  : i64
    %254 = llvm.icmp "slt" %253, %26 : i64
    %255 = llvm.add %253, %38 : i64
    %256 = llvm.select %254, %255, %253 : i1, i64
    %257 = builtin.unrealized_conversion_cast %256 : i64 to index
    %258 = llvm.icmp "slt" %223, %26 : i64
    %259 = llvm.sub %31, %223 : i64
    %260 = llvm.select %258, %259, %223 : i1, i64
    %261 = llvm.sdiv %260, %33  : i64
    %262 = llvm.sub %31, %261 : i64
    %263 = llvm.select %258, %262, %261 : i1, i64
    %264 = llvm.icmp "slt" %263, %26 : i64
    %265 = llvm.sub %31, %263 : i64
    %266 = llvm.select %264, %265, %263 : i1, i64
    %267 = llvm.sdiv %266, %38  : i64
    %268 = llvm.sub %31, %267 : i64
    %269 = llvm.select %264, %268, %267 : i1, i64
    %270 = llvm.icmp "slt" %269, %26 : i64
    %271 = llvm.sub %31, %269 : i64
    %272 = llvm.select %270, %271, %269 : i1, i64
    %273 = llvm.sdiv %272, %38  : i64
    %274 = llvm.sub %31, %273 : i64
    %275 = llvm.select %270, %274, %273 : i1, i64
    %276 = builtin.unrealized_conversion_cast %275 : i64 to index
    memref.store %24, %alloc_3[%27, %257, %240, %229] : memref<1x14x14x8xf32>
    %277 = llvm.mul %256, %40 : i64
    %278 = llvm.mul %239, %40 : i64
    llvm.br ^bb15(%26 : i64)
  ^bb15(%279: i64):  // 2 preds: ^bb14, ^bb16
    %280 = llvm.icmp "slt" %279, %39 : i64
    llvm.cond_br %280, ^bb16(%279 : i64), ^bb17
  ^bb16(%281: i64):  // pred: ^bb15
    %282 = llvm.add %281, %29 : i64
    %283 = llvm.srem %281, %40  : i64
    %284 = llvm.icmp "slt" %283, %26 : i64
    %285 = llvm.add %283, %40 : i64
    %286 = llvm.select %284, %285, %283 : i1, i64
    %287 = llvm.icmp "slt" %281, %26 : i64
    %288 = llvm.sub %31, %281 : i64
    %289 = llvm.select %287, %288, %281 : i1, i64
    %290 = llvm.sdiv %289, %40  : i64
    %291 = llvm.sub %31, %290 : i64
    %292 = llvm.select %287, %291, %290 : i1, i64
    %293 = llvm.add %277, %292 : i64
    %294 = builtin.unrealized_conversion_cast %293 : i64 to index
    %295 = llvm.add %278, %286 : i64
    %296 = builtin.unrealized_conversion_cast %295 : i64 to index
    %297 = memref.load %alloc_2[%27, %294, %296, %229] : memref<1x28x28x8xf32>
    %298 = memref.load %52[%27, %229, %27, %27] : memref<1x8x1x1xf32>
    %299 = memref.load %alloc_3[%276, %257, %240, %229] : memref<1x14x14x8xf32>
    %300 = llvm.fadd %297, %298  : f32
    %301 = llvm.fcmp "ugt" %300, %25 : f32
    %302 = llvm.select %301, %300, %25 : i1, f32
    %303 = llvm.mlir.constant(false) : i1
    %304 = llvm.select %303, %25, %302 : i1, f32
    %305 = llvm.fcmp "ugt" %299, %304 : f32
    %306 = llvm.select %305, %299, %304 : i1, f32
    %307 = llvm.fcmp "uno" %304, %304 : f32
    %308 = llvm.select %307, %304, %306 : i1, f32
    memref.store %308, %alloc_3[%276, %257, %240, %229] : memref<1x14x14x8xf32>
    llvm.br ^bb15(%282 : i64)
  ^bb17:  // pred: ^bb15
    %309 = llvm.add %223, %29 : i64
    llvm.br ^bb13(%309 : i64)
  ^bb18:  // pred: ^bb13
    memref.dealloc %alloc_2 : memref<1x28x28x8xf32>
    %alloc_4 = memref.alloc() {alignment = 64 : i64} : memref<1x18x18x8xf32>
    llvm.br ^bb19(%26 : i64)
  ^bb19(%310: i64):  // 2 preds: ^bb18, ^bb20
    %311 = llvm.icmp "slt" %310, %41 : i64
    llvm.cond_br %311, ^bb20, ^bb21
  ^bb20:  // pred: ^bb19
    %312 = llvm.srem %310, %33  : i64
    %313 = llvm.icmp "slt" %312, %26 : i64
    %314 = llvm.add %312, %33 : i64
    %315 = llvm.select %313, %314, %312 : i1, i64
    %316 = builtin.unrealized_conversion_cast %315 : i64 to index
    %317 = llvm.icmp "slt" %310, %26 : i64
    %318 = llvm.sub %31, %310 : i64
    %319 = llvm.select %317, %318, %310 : i1, i64
    %320 = llvm.sdiv %319, %33  : i64
    %321 = llvm.sub %31, %320 : i64
    %322 = llvm.select %317, %321, %320 : i1, i64
    %323 = llvm.srem %322, %42  : i64
    %324 = llvm.icmp "slt" %323, %26 : i64
    %325 = llvm.add %323, %42 : i64
    %326 = llvm.select %324, %325, %323 : i1, i64
    %327 = builtin.unrealized_conversion_cast %326 : i64 to index
    %328 = llvm.icmp "slt" %310, %26 : i64
    %329 = llvm.sub %31, %310 : i64
    %330 = llvm.select %328, %329, %310 : i1, i64
    %331 = llvm.sdiv %330, %33  : i64
    %332 = llvm.sub %31, %331 : i64
    %333 = llvm.select %328, %332, %331 : i1, i64
    %334 = llvm.icmp "slt" %333, %26 : i64
    %335 = llvm.sub %31, %333 : i64
    %336 = llvm.select %334, %335, %333 : i1, i64
    %337 = llvm.sdiv %336, %42  : i64
    %338 = llvm.sub %31, %337 : i64
    %339 = llvm.select %334, %338, %337 : i1, i64
    %340 = llvm.srem %339, %42  : i64
    %341 = llvm.icmp "slt" %340, %26 : i64
    %342 = llvm.add %340, %42 : i64
    %343 = llvm.select %341, %342, %340 : i1, i64
    %344 = builtin.unrealized_conversion_cast %343 : i64 to index
    %345 = llvm.icmp "slt" %310, %26 : i64
    %346 = llvm.sub %31, %310 : i64
    %347 = llvm.select %345, %346, %310 : i1, i64
    %348 = llvm.sdiv %347, %33  : i64
    %349 = llvm.sub %31, %348 : i64
    %350 = llvm.select %345, %349, %348 : i1, i64
    %351 = llvm.icmp "slt" %350, %26 : i64
    %352 = llvm.sub %31, %350 : i64
    %353 = llvm.select %351, %352, %350 : i1, i64
    %354 = llvm.sdiv %353, %42  : i64
    %355 = llvm.sub %31, %354 : i64
    %356 = llvm.select %351, %355, %354 : i1, i64
    %357 = llvm.icmp "slt" %356, %26 : i64
    %358 = llvm.sub %31, %356 : i64
    %359 = llvm.select %357, %358, %356 : i1, i64
    %360 = llvm.sdiv %359, %42  : i64
    %361 = llvm.sub %31, %360 : i64
    %362 = llvm.select %357, %361, %360 : i1, i64
    %363 = builtin.unrealized_conversion_cast %362 : i64 to index
    memref.store %25, %alloc_4[%363, %344, %327, %316] : memref<1x18x18x8xf32>
    %364 = llvm.add %310, %29 : i64
    llvm.br ^bb19(%364 : i64)
  ^bb21:  // pred: ^bb19
    %reinterpret_cast_5 = memref.reinterpret_cast %alloc_4 to offset: [304], sizes: [1, 14, 14, 8], strides: [2592, 144, 8, 1] : memref<1x18x18x8xf32> to memref<1x14x14x8xf32, strided<[2592, 144, 8, 1], offset: 304>>
    memref.copy %alloc_3, %reinterpret_cast_5 : memref<1x14x14x8xf32> to memref<1x14x14x8xf32, strided<[2592, 144, 8, 1], offset: 304>>
    memref.dealloc %alloc_3 : memref<1x14x14x8xf32>
    %alloc_6 = memref.alloc() {alignment = 64 : i64} : memref<1x14x14x16xf32>
    llvm.br ^bb22(%26 : i64)
  ^bb22(%365: i64):  // 2 preds: ^bb21, ^bb26
    %366 = llvm.icmp "slt" %365, %43 : i64
    llvm.cond_br %366, ^bb23, ^bb27
  ^bb23:  // pred: ^bb22
    %367 = llvm.srem %365, %44  : i64
    %368 = llvm.icmp "slt" %367, %26 : i64
    %369 = llvm.add %367, %44 : i64
    %370 = llvm.select %368, %369, %367 : i1, i64
    %371 = builtin.unrealized_conversion_cast %370 : i64 to index
    %372 = llvm.icmp "slt" %365, %26 : i64
    %373 = llvm.sub %31, %365 : i64
    %374 = llvm.select %372, %373, %365 : i1, i64
    %375 = llvm.sdiv %374, %44  : i64
    %376 = llvm.sub %31, %375 : i64
    %377 = llvm.select %372, %376, %375 : i1, i64
    %378 = llvm.srem %377, %38  : i64
    %379 = llvm.icmp "slt" %378, %26 : i64
    %380 = llvm.add %378, %38 : i64
    %381 = llvm.select %379, %380, %378 : i1, i64
    %382 = builtin.unrealized_conversion_cast %381 : i64 to index
    %383 = llvm.icmp "slt" %365, %26 : i64
    %384 = llvm.sub %31, %365 : i64
    %385 = llvm.select %383, %384, %365 : i1, i64
    %386 = llvm.sdiv %385, %44  : i64
    %387 = llvm.sub %31, %386 : i64
    %388 = llvm.select %383, %387, %386 : i1, i64
    %389 = llvm.icmp "slt" %388, %26 : i64
    %390 = llvm.sub %31, %388 : i64
    %391 = llvm.select %389, %390, %388 : i1, i64
    %392 = llvm.sdiv %391, %38  : i64
    %393 = llvm.sub %31, %392 : i64
    %394 = llvm.select %389, %393, %392 : i1, i64
    %395 = llvm.srem %394, %38  : i64
    %396 = llvm.icmp "slt" %395, %26 : i64
    %397 = llvm.add %395, %38 : i64
    %398 = llvm.select %396, %397, %395 : i1, i64
    %399 = builtin.unrealized_conversion_cast %398 : i64 to index
    %400 = llvm.icmp "slt" %365, %26 : i64
    %401 = llvm.sub %31, %365 : i64
    %402 = llvm.select %400, %401, %365 : i1, i64
    %403 = llvm.sdiv %402, %44  : i64
    %404 = llvm.sub %31, %403 : i64
    %405 = llvm.select %400, %404, %403 : i1, i64
    %406 = llvm.icmp "slt" %405, %26 : i64
    %407 = llvm.sub %31, %405 : i64
    %408 = llvm.select %406, %407, %405 : i1, i64
    %409 = llvm.sdiv %408, %38  : i64
    %410 = llvm.sub %31, %409 : i64
    %411 = llvm.select %406, %410, %409 : i1, i64
    %412 = llvm.icmp "slt" %411, %26 : i64
    %413 = llvm.sub %31, %411 : i64
    %414 = llvm.select %412, %413, %411 : i1, i64
    %415 = llvm.sdiv %414, %38  : i64
    %416 = llvm.sub %31, %415 : i64
    %417 = llvm.select %412, %416, %415 : i1, i64
    %418 = builtin.unrealized_conversion_cast %417 : i64 to index
    memref.store %25, %alloc_6[%27, %399, %382, %371] : memref<1x14x14x16xf32>
    llvm.br ^bb24(%26 : i64)
  ^bb24(%419: i64):  // 2 preds: ^bb23, ^bb25
    %420 = llvm.icmp "slt" %419, %45 : i64
    llvm.cond_br %420, ^bb25(%419 : i64), ^bb26
  ^bb25(%421: i64):  // pred: ^bb24
    %422 = llvm.add %421, %29 : i64
    %423 = llvm.srem %421, %33  : i64
    %424 = llvm.icmp "slt" %423, %26 : i64
    %425 = llvm.add %423, %33 : i64
    %426 = llvm.select %424, %425, %423 : i1, i64
    %427 = builtin.unrealized_conversion_cast %426 : i64 to index
    %428 = llvm.icmp "slt" %421, %26 : i64
    %429 = llvm.sub %31, %421 : i64
    %430 = llvm.select %428, %429, %421 : i1, i64
    %431 = llvm.sdiv %430, %33  : i64
    %432 = llvm.sub %31, %431 : i64
    %433 = llvm.select %428, %432, %431 : i1, i64
    %434 = llvm.srem %433, %36  : i64
    %435 = llvm.icmp "slt" %434, %26 : i64
    %436 = llvm.add %434, %36 : i64
    %437 = llvm.select %435, %436, %434 : i1, i64
    %438 = builtin.unrealized_conversion_cast %437 : i64 to index
    %439 = llvm.icmp "slt" %421, %26 : i64
    %440 = llvm.sub %31, %421 : i64
    %441 = llvm.select %439, %440, %421 : i1, i64
    %442 = llvm.sdiv %441, %33  : i64
    %443 = llvm.sub %31, %442 : i64
    %444 = llvm.select %439, %443, %442 : i1, i64
    %445 = llvm.icmp "slt" %444, %26 : i64
    %446 = llvm.sub %31, %444 : i64
    %447 = llvm.select %445, %446, %444 : i1, i64
    %448 = llvm.sdiv %447, %36  : i64
    %449 = llvm.sub %31, %448 : i64
    %450 = llvm.select %445, %449, %448 : i1, i64
    %451 = builtin.unrealized_conversion_cast %450 : i64 to index
    %452 = llvm.add %398, %450 : i64
    %453 = builtin.unrealized_conversion_cast %452 : i64 to index
    %454 = llvm.add %381, %437 : i64
    %455 = builtin.unrealized_conversion_cast %454 : i64 to index
    %456 = memref.load %alloc_4[%418, %453, %455, %427] : memref<1x18x18x8xf32>
    %457 = memref.load %50[%371, %451, %438, %427] : memref<16x5x5x8xf32>
    %458 = memref.load %alloc_6[%418, %399, %382, %371] : memref<1x14x14x16xf32>
    %459 = llvm.fmul %456, %457  : f32
    %460 = llvm.fadd %458, %459  : f32
    memref.store %460, %alloc_6[%418, %399, %382, %371] : memref<1x14x14x16xf32>
    llvm.br ^bb24(%422 : i64)
  ^bb26:  // pred: ^bb24
    %461 = llvm.add %365, %29 : i64
    llvm.br ^bb22(%461 : i64)
  ^bb27:  // pred: ^bb22
    memref.dealloc %alloc_4 : memref<1x18x18x8xf32>
    %alloc_7 = memref.alloc() {alignment = 64 : i64} : memref<1x4x4x16xf32>
    llvm.br ^bb28(%26 : i64)
  ^bb28(%462: i64):  // 2 preds: ^bb27, ^bb32
    %463 = llvm.icmp "slt" %462, %46 : i64
    llvm.cond_br %463, ^bb29, ^bb33
  ^bb29:  // pred: ^bb28
    %464 = llvm.srem %462, %44  : i64
    %465 = llvm.icmp "slt" %464, %26 : i64
    %466 = llvm.add %464, %44 : i64
    %467 = llvm.select %465, %466, %464 : i1, i64
    %468 = builtin.unrealized_conversion_cast %467 : i64 to index
    %469 = llvm.icmp "slt" %462, %26 : i64
    %470 = llvm.sub %31, %462 : i64
    %471 = llvm.select %469, %470, %462 : i1, i64
    %472 = llvm.sdiv %471, %44  : i64
    %473 = llvm.sub %31, %472 : i64
    %474 = llvm.select %469, %473, %472 : i1, i64
    %475 = llvm.srem %474, %39  : i64
    %476 = llvm.icmp "slt" %475, %26 : i64
    %477 = llvm.add %475, %39 : i64
    %478 = llvm.select %476, %477, %475 : i1, i64
    %479 = builtin.unrealized_conversion_cast %478 : i64 to index
    %480 = llvm.icmp "slt" %462, %26 : i64
    %481 = llvm.sub %31, %462 : i64
    %482 = llvm.select %480, %481, %462 : i1, i64
    %483 = llvm.sdiv %482, %44  : i64
    %484 = llvm.sub %31, %483 : i64
    %485 = llvm.select %480, %484, %483 : i1, i64
    %486 = llvm.icmp "slt" %485, %26 : i64
    %487 = llvm.sub %31, %485 : i64
    %488 = llvm.select %486, %487, %485 : i1, i64
    %489 = llvm.sdiv %488, %39  : i64
    %490 = llvm.sub %31, %489 : i64
    %491 = llvm.select %486, %490, %489 : i1, i64
    %492 = llvm.srem %491, %39  : i64
    %493 = llvm.icmp "slt" %492, %26 : i64
    %494 = llvm.add %492, %39 : i64
    %495 = llvm.select %493, %494, %492 : i1, i64
    %496 = builtin.unrealized_conversion_cast %495 : i64 to index
    %497 = llvm.icmp "slt" %462, %26 : i64
    %498 = llvm.sub %31, %462 : i64
    %499 = llvm.select %497, %498, %462 : i1, i64
    %500 = llvm.sdiv %499, %44  : i64
    %501 = llvm.sub %31, %500 : i64
    %502 = llvm.select %497, %501, %500 : i1, i64
    %503 = llvm.icmp "slt" %502, %26 : i64
    %504 = llvm.sub %31, %502 : i64
    %505 = llvm.select %503, %504, %502 : i1, i64
    %506 = llvm.sdiv %505, %39  : i64
    %507 = llvm.sub %31, %506 : i64
    %508 = llvm.select %503, %507, %506 : i1, i64
    %509 = llvm.icmp "slt" %508, %26 : i64
    %510 = llvm.sub %31, %508 : i64
    %511 = llvm.select %509, %510, %508 : i1, i64
    %512 = llvm.sdiv %511, %39  : i64
    %513 = llvm.sub %31, %512 : i64
    %514 = llvm.select %509, %513, %512 : i1, i64
    %515 = builtin.unrealized_conversion_cast %514 : i64 to index
    memref.store %24, %alloc_7[%27, %496, %479, %468] : memref<1x4x4x16xf32>
    %516 = llvm.mul %495, %48 : i64
    %517 = llvm.mul %478, %48 : i64
    llvm.br ^bb30(%26 : i64)
  ^bb30(%518: i64):  // 2 preds: ^bb29, ^bb31
    %519 = llvm.icmp "slt" %518, %47 : i64
    llvm.cond_br %519, ^bb31(%518 : i64), ^bb32
  ^bb31(%520: i64):  // pred: ^bb30
    %521 = llvm.add %520, %29 : i64
    %522 = llvm.srem %520, %48  : i64
    %523 = llvm.icmp "slt" %522, %26 : i64
    %524 = llvm.add %522, %48 : i64
    %525 = llvm.select %523, %524, %522 : i1, i64
    %526 = llvm.icmp "slt" %520, %26 : i64
    %527 = llvm.sub %31, %520 : i64
    %528 = llvm.select %526, %527, %520 : i1, i64
    %529 = llvm.sdiv %528, %48  : i64
    %530 = llvm.sub %31, %529 : i64
    %531 = llvm.select %526, %530, %529 : i1, i64
    %532 = llvm.add %516, %531 : i64
    %533 = builtin.unrealized_conversion_cast %532 : i64 to index
    %534 = llvm.add %517, %525 : i64
    %535 = builtin.unrealized_conversion_cast %534 : i64 to index
    %536 = memref.load %alloc_6[%27, %533, %535, %468] : memref<1x14x14x16xf32>
    %537 = memref.load %51[%27, %468, %27, %27] : memref<1x16x1x1xf32>
    %538 = memref.load %alloc_7[%515, %496, %479, %468] : memref<1x4x4x16xf32>
    %539 = llvm.fadd %536, %537  : f32
    %540 = llvm.fcmp "ugt" %539, %25 : f32
    %541 = llvm.select %540, %539, %25 : i1, f32
    %542 = llvm.mlir.constant(false) : i1
    %543 = llvm.select %542, %25, %541 : i1, f32
    %544 = llvm.fcmp "ugt" %538, %543 : f32
    %545 = llvm.select %544, %538, %543 : i1, f32
    %546 = llvm.fcmp "uno" %543, %543 : f32
    %547 = llvm.select %546, %543, %545 : i1, f32
    memref.store %547, %alloc_7[%515, %496, %479, %468] : memref<1x4x4x16xf32>
    llvm.br ^bb30(%521 : i64)
  ^bb32:  // pred: ^bb30
    %548 = llvm.add %462, %29 : i64
    llvm.br ^bb28(%548 : i64)
  ^bb33:  // pred: ^bb28
    memref.dealloc %alloc_6 : memref<1x14x14x16xf32>
    %alloc_8 = memref.alloc() {alignment = 64 : i64} : memref<1x16x4x4xf32>
    llvm.br ^bb34(%26 : i64)
  ^bb34(%549: i64):  // 2 preds: ^bb33, ^bb35
    %550 = llvm.icmp "slt" %549, %46 : i64
    llvm.cond_br %550, ^bb35, ^bb36
  ^bb35:  // pred: ^bb34
    %551 = llvm.srem %549, %39  : i64
    %552 = llvm.icmp "slt" %551, %26 : i64
    %553 = llvm.add %551, %39 : i64
    %554 = llvm.select %552, %553, %551 : i1, i64
    %555 = builtin.unrealized_conversion_cast %554 : i64 to index
    %556 = llvm.icmp "slt" %549, %26 : i64
    %557 = llvm.sub %31, %549 : i64
    %558 = llvm.select %556, %557, %549 : i1, i64
    %559 = llvm.sdiv %558, %39  : i64
    %560 = llvm.sub %31, %559 : i64
    %561 = llvm.select %556, %560, %559 : i1, i64
    %562 = llvm.srem %561, %39  : i64
    %563 = llvm.icmp "slt" %562, %26 : i64
    %564 = llvm.add %562, %39 : i64
    %565 = llvm.select %563, %564, %562 : i1, i64
    %566 = builtin.unrealized_conversion_cast %565 : i64 to index
    %567 = llvm.icmp "slt" %549, %26 : i64
    %568 = llvm.sub %31, %549 : i64
    %569 = llvm.select %567, %568, %549 : i1, i64
    %570 = llvm.sdiv %569, %39  : i64
    %571 = llvm.sub %31, %570 : i64
    %572 = llvm.select %567, %571, %570 : i1, i64
    %573 = llvm.icmp "slt" %572, %26 : i64
    %574 = llvm.sub %31, %572 : i64
    %575 = llvm.select %573, %574, %572 : i1, i64
    %576 = llvm.sdiv %575, %39  : i64
    %577 = llvm.sub %31, %576 : i64
    %578 = llvm.select %573, %577, %576 : i1, i64
    %579 = llvm.srem %578, %44  : i64
    %580 = llvm.icmp "slt" %579, %26 : i64
    %581 = llvm.add %579, %44 : i64
    %582 = llvm.select %580, %581, %579 : i1, i64
    %583 = builtin.unrealized_conversion_cast %582 : i64 to index
    %584 = llvm.icmp "slt" %549, %26 : i64
    %585 = llvm.sub %31, %549 : i64
    %586 = llvm.select %584, %585, %549 : i1, i64
    %587 = llvm.sdiv %586, %39  : i64
    %588 = llvm.sub %31, %587 : i64
    %589 = llvm.select %584, %588, %587 : i1, i64
    %590 = llvm.icmp "slt" %589, %26 : i64
    %591 = llvm.sub %31, %589 : i64
    %592 = llvm.select %590, %591, %589 : i1, i64
    %593 = llvm.sdiv %592, %39  : i64
    %594 = llvm.sub %31, %593 : i64
    %595 = llvm.select %590, %594, %593 : i1, i64
    %596 = llvm.icmp "slt" %595, %26 : i64
    %597 = llvm.sub %31, %595 : i64
    %598 = llvm.select %596, %597, %595 : i1, i64
    %599 = llvm.sdiv %598, %44  : i64
    %600 = llvm.sub %31, %599 : i64
    %601 = llvm.select %596, %600, %599 : i1, i64
    %602 = builtin.unrealized_conversion_cast %601 : i64 to index
    %603 = memref.load %alloc_7[%602, %566, %555, %583] : memref<1x4x4x16xf32>
    memref.store %603, %alloc_8[%602, %583, %566, %555] : memref<1x16x4x4xf32>
    %604 = llvm.add %549, %29 : i64
    llvm.br ^bb34(%604 : i64)
  ^bb36:  // pred: ^bb34
    memref.dealloc %alloc_7 : memref<1x4x4x16xf32>
    %alloc_9 = memref.alloc() {alignment = 64 : i64} : memref<1x1x10xf32>
    llvm.br ^bb37(%26 : i64)
  ^bb37(%605: i64):  // 2 preds: ^bb36, ^bb41
    %606 = llvm.icmp "slt" %605, %49 : i64
    llvm.cond_br %606, ^bb38, ^bb42
  ^bb38:  // pred: ^bb37
    %607 = llvm.srem %605, %49  : i64
    %608 = llvm.icmp "slt" %607, %26 : i64
    %609 = llvm.add %607, %49 : i64
    %610 = llvm.select %608, %609, %607 : i1, i64
    %611 = builtin.unrealized_conversion_cast %610 : i64 to index
    %612 = llvm.icmp "slt" %605, %26 : i64
    %613 = llvm.sub %31, %605 : i64
    %614 = llvm.select %612, %613, %605 : i1, i64
    %615 = llvm.sdiv %614, %49  : i64
    %616 = llvm.sub %31, %615 : i64
    %617 = llvm.select %612, %616, %615 : i1, i64
    %618 = builtin.unrealized_conversion_cast %617 : i64 to index
    memref.store %25, %alloc_9[%27, %27, %611] : memref<1x1x10xf32>
    llvm.br ^bb39(%26 : i64)
  ^bb39(%619: i64):  // 2 preds: ^bb38, ^bb40
    %620 = llvm.icmp "slt" %619, %46 : i64
    llvm.cond_br %620, ^bb40(%619 : i64), ^bb41
  ^bb40(%621: i64):  // pred: ^bb39
    %622 = builtin.unrealized_conversion_cast %621 : i64 to index
    %623 = llvm.add %621, %29 : i64
    %624 = llvm.icmp "slt" %621, %26 : i64
    %625 = llvm.sub %31, %621 : i64
    %626 = llvm.select %624, %625, %621 : i1, i64
    %627 = llvm.sdiv %626, %44  : i64
    %628 = llvm.sub %31, %627 : i64
    %629 = llvm.select %624, %628, %627 : i1, i64
    %630 = builtin.unrealized_conversion_cast %629 : i64 to index
    %631 = llvm.srem %621, %44  : i64
    %632 = llvm.icmp "slt" %631, %26 : i64
    %633 = llvm.add %631, %44 : i64
    %634 = llvm.select %632, %633, %631 : i1, i64
    %635 = llvm.icmp "slt" %634, %26 : i64
    %636 = llvm.sub %31, %634 : i64
    %637 = llvm.select %635, %636, %634 : i1, i64
    %638 = llvm.sdiv %637, %39  : i64
    %639 = llvm.sub %31, %638 : i64
    %640 = llvm.select %635, %639, %638 : i1, i64
    %641 = builtin.unrealized_conversion_cast %640 : i64 to index
    %642 = llvm.srem %621, %39  : i64
    %643 = llvm.icmp "slt" %642, %26 : i64
    %644 = llvm.add %642, %39 : i64
    %645 = llvm.select %643, %644, %642 : i1, i64
    %646 = builtin.unrealized_conversion_cast %645 : i64 to index
    %647 = memref.load %alloc_8[%618, %630, %641, %646] : memref<1x16x4x4xf32>
    %648 = memref.load %54[%618, %622, %611] : memref<1x256x10xf32>
    %649 = memref.load %alloc_9[%618, %27, %611] : memref<1x1x10xf32>
    %650 = llvm.fmul %647, %648  : f32
    %651 = llvm.fadd %649, %650  : f32
    memref.store %651, %alloc_9[%618, %27, %611] : memref<1x1x10xf32>
    llvm.br ^bb39(%623 : i64)
  ^bb41:  // pred: ^bb39
    %652 = llvm.add %605, %29 : i64
    llvm.br ^bb37(%652 : i64)
  ^bb42:  // pred: ^bb37
    memref.dealloc %alloc_8 : memref<1x16x4x4xf32>
    %alloc_10 = memref.alloc() {alignment = 64 : i64} : memref<1x10xf32>
    llvm.br ^bb43(%26 : i64)
  ^bb43(%653: i64):  // 2 preds: ^bb42, ^bb44
    %654 = llvm.icmp "slt" %653, %49 : i64
    llvm.cond_br %654, ^bb44, ^bb45
  ^bb44:  // pred: ^bb43
    %655 = llvm.srem %653, %49  : i64
    %656 = llvm.icmp "slt" %655, %26 : i64
    %657 = llvm.add %655, %49 : i64
    %658 = llvm.select %656, %657, %655 : i1, i64
    %659 = builtin.unrealized_conversion_cast %658 : i64 to index
    %660 = llvm.icmp "slt" %653, %26 : i64
    %661 = llvm.sub %31, %653 : i64
    %662 = llvm.select %660, %661, %653 : i1, i64
    %663 = llvm.sdiv %662, %49  : i64
    %664 = llvm.sub %31, %663 : i64
    %665 = llvm.select %660, %664, %663 : i1, i64
    %666 = builtin.unrealized_conversion_cast %665 : i64 to index
    %667 = memref.load %alloc_9[%27, %27, %659] : memref<1x1x10xf32>
    %668 = memref.load %55[%27, %659] : memref<1x10xf32>
    %669 = llvm.fadd %667, %668  : f32
    memref.store %669, %alloc_10[%666, %659] : memref<1x10xf32>
    %670 = llvm.add %653, %29 : i64
    llvm.br ^bb43(%670 : i64)
  ^bb45:  // pred: ^bb43
    memref.dealloc %alloc_9 : memref<1x1x10xf32>
    memref.copy %alloc_10, %8 : memref<1x10xf32> to memref<1x10xf32>
    memref.dealloc %alloc_10 : memref<1x10xf32>
    llvm.return
  }
}


