// -----// IR Dump After Canonicalizer (canonicalize) //----- //
#map = affine_map<(d0) -> (d0 floordiv 16)>
#map1 = affine_map<(d0) -> ((d0 mod 16) floordiv 4)>
#map2 = affine_map<(d0) -> (d0 mod 4)>
module attributes {builtin.gloabal_layout = "NCHW"} {
  memref.global "private" constant @__constant_1x10xf32 : memref<1x10xf32> = dense<[[-0.0448560268, 0.00779166119, 0.0681008175, 0.0299937408, -0.126409635, 0.14021875, -0.0552849025, -0.0493838154, 0.0843220502, -0.0545404144]]> {alignment = 64 : i64}
  memref.global "private" constant @__constant_1x256x10xf32 : memref<1x256x10xf32> = dense<"…"> {alignment = 64 : i64}
  memref.global "private" constant @__constant_8x5x5x1xf32 : memref<8x5x5x1xf32> = dense<"…"> {alignment = 64 : i64}
  memref.global "private" constant @__constant_1x8x1x1xf32 : memref<1x8x1x1xf32> = dense<[[[[-0.161539719]], [[-0.433835655]], [[0.091641359]], [[-0.0168522168]], [[-0.0650264397]], [[-0.131737873]], [[0.0204175506]], [[-0.121110231]]]]> {alignment = 64 : i64}
  memref.global "private" constant @__constant_1x16x1x1xf32 : memref<1x16x1x1xf32> = dense<[[[[… > {alignment = 64 : i64}
  memref.global "private" constant @__constant_16x5x5x8xf32 : memref<16x5x5x8xf32> = dense<"…"> {alignment = 64 : i64}
  func.func @main(%arg0: memref<1x1x28x28xf32, strided<[?, ?, ?, ?], offset: ?>>, %arg1: memref<1x10xf32>) {
    %c0 = arith.constant 0 : index
    %cst = arith.constant 0.000000e+00 : f32
    %cst_0 = arith.constant -3.40282347E+38 : f32
    %c1024 = arith.constant 1024 : index
    %c1 = arith.constant 1 : index
    %c32 = arith.constant 32 : index
    %c1568 = arith.constant 1568 : index
    %c8 = arith.constant 8 : index
    %c14 = arith.constant 14 : index
    %c4 = arith.constant 4 : index
    %c25 = arith.constant 25 : index
    %c5 = arith.constant 5 : index
    %c2 = arith.constant 2 : index
    %c-28 = arith.constant -28 : index
    %c-2 = arith.constant -2 : index
    %c-5 = arith.constant -5 : index
    %c2592 = arith.constant 2592 : index
    %c18 = arith.constant 18 : index
    %c256 = arith.constant 256 : index
    %c9 = arith.constant 9 : index
    %c200 = arith.constant 200 : index
    %c3 = arith.constant 3 : index
    %c-12 = arith.constant -12 : index
    %c-3 = arith.constant -3 : index
    %c10 = arith.constant 10 : index
    %alloc = memref.alloc() : memref<1x1x1x1xf32>
    %alloc_1 = memref.alloc() : memref<1x1x1x1xf32>
    %alloc_2 = memref.alloc() : memref<1x1x1x1xf32>
    %0 = memref.get_global @__constant_16x5x5x8xf32 : memref<16x5x5x8xf32>
    %1 = memref.get_global @__constant_1x16x1x1xf32 : memref<1x16x1x1xf32>
    %2 = memref.get_global @__constant_1x8x1x1xf32 : memref<1x8x1x1xf32>
    %3 = memref.get_global @__constant_8x5x5x1xf32 : memref<8x5x5x1xf32>
    %4 = memref.get_global @__constant_1x256x10xf32 : memref<1x256x10xf32>
    %5 = memref.get_global @__constant_1x10xf32 : memref<1x10xf32>
    %alloc_3 = memref.alloc() {alignment = 64 : i64} : memref<1x1x28x28xf32>
    memref.copy %arg0, %alloc_3 : memref<1x1x28x28xf32, strided<[?, ?, ?, ?], offset: ?>> to memref<1x1x28x28xf32>
    %reinterpret_cast = memref.reinterpret_cast %alloc_3 to offset: [0], sizes: [1, 28, 28, 1], strides: [784, 28, 1, 1] : memref<1x1x28x28xf32> to memref<1x28x28x1xf32>
    %alloc_4 = memref.alloc() {alignment = 64 : i64} : memref<1x32x32x1xf32>
    scf.parallel (%arg2) = (%c0) to (%c1024) step (%c1) {
      %8 = arith.remui %arg2, %c32 : index
      %9 = arith.divui %arg2, %c32 : index
      memref.store %cst, %alloc_4[%c0, %9, %8, %c0] : memref<1x32x32x1xf32>
      scf.reduce 
    }
    %reinterpret_cast_5 = memref.reinterpret_cast %alloc_4 to offset: [66], sizes: [1, 28, 28, 1], strides: [1024, 32, 1, 1] : memref<1x32x32x1xf32> to memref<1x28x28x1xf32, strided<[1024, 32, 1, 1], offset: 66>>
    memref.copy %reinterpret_cast, %reinterpret_cast_5 : memref<1x28x28x1xf32> to memref<1x28x28x1xf32, strided<[1024, 32, 1, 1], offset: 66>>
    memref.dealloc %alloc_3 : memref<1x1x28x28xf32>
    %alloc_6 = memref.alloc() {alignment = 64 : i64} : memref<1x14x14x8xf32>
    %6 = scf.while (%arg2 = %c0) : (index) -> index {
      %8 = arith.cmpi slt, %arg2, %c1568 : index
      scf.condition(%8) %arg2 : index
    } do {
    ^bb0(%arg2: index):
      %8 = arith.addi %arg2, %c1 : index
      %9 = arith.remui %arg2, %c8 : index
      %10 = arith.divui %arg2, %c8 : index
      %11 = arith.remui %10, %c14 : index
      %12 = arith.divui %10, %c14 : index
      memref.store %cst_0, %alloc_6[%c0, %12, %11, %9] : memref<1x14x14x8xf32>
      %13 = arith.muli %12, %c2 : index
      %14 = arith.muli %10, %c2 : index
      %15 = arith.muli %12, %c-28 : index
      %16 = scf.while (%arg3 = %c0) : (index) -> index {
        %17 = arith.cmpi slt, %arg3, %c4 : index
        scf.condition(%17) %arg3 : index
      } do {
      ^bb0(%arg3: index):
        %17 = arith.addi %arg3, %c1 : index
        memref.store %cst, %alloc_2[%c0, %c0, %c0, %c0] : memref<1x1x1x1xf32>
        %18 = arith.divui %arg3, %c2 : index
        %19 = arith.addi %13, %18 : index
        %20 = arith.muli %18, %c-2 : index
        %21 = scf.while (%arg4 = %c0) : (index) -> index {
          %32 = arith.cmpi slt, %arg4, %c25 : index
          scf.condition(%32) %arg4 : index
        } do {
        ^bb0(%arg4: index):
          %32 = arith.addi %arg4, %c1 : index
          %33 = arith.remui %arg4, %c5 : index
          %34 = arith.divui %arg4, %c5 : index
          %35 = arith.addi %19, %34 : index
          %36 = arith.addi %arg4, %arg3 : index
          %37 = arith.addi %36, %14 : index
          %38 = arith.addi %37, %15 : index
          %39 = arith.addi %38, %20 : index
          %40 = arith.muli %34, %c-5 : index
          %41 = arith.addi %39, %40 : index
          %42 = memref.load %alloc_4[%c0, %35, %41, %c0] : memref<1x32x32x1xf32>
          %43 = memref.load %3[%9, %34, %33, %c0] : memref<8x5x5x1xf32>
          %44 = memref.load %alloc_2[%c0, %c0, %c0, %c0] : memref<1x1x1x1xf32>
          %45 = arith.mulf %42, %43 : f32
          %46 = arith.addf %44, %45 : f32
          memref.store %46, %alloc_2[%c0, %c0, %c0, %c0] : memref<1x1x1x1xf32>
          scf.yield %32 : index
        }
        %22 = memref.load %alloc_2[%c0, %c0, %c0, %c0] : memref<1x1x1x1xf32>
        %23 = memref.load %2[%c0, %9, %c0, %c0] : memref<1x8x1x1xf32>
        %24 = memref.load %alloc_6[%c0, %12, %11, %9] : memref<1x14x14x8xf32>
        %25 = arith.addf %22, %23 : f32
        %26 = arith.cmpf ugt, %25, %cst : f32
        %27 = arith.select %26, %25, %cst : f32
        %28 = arith.cmpf ugt, %24, %27 : f32
        %29 = arith.select %28, %24, %27 : f32
        %30 = arith.cmpf uno, %27, %27 : f32
        %31 = arith.select %30, %27, %29 : f32
        memref.store %31, %alloc_6[%c0, %12, %11, %9] : memref<1x14x14x8xf32>
        scf.yield %17 : index
      }
      scf.yield %8 : index
    }
    memref.dealloc %alloc_4 : memref<1x32x32x1xf32>
    memref.dealloc %alloc_2 : memref<1x1x1x1xf32>
    %alloc_7 = memref.alloc() {alignment = 64 : i64} : memref<1x18x18x8xf32>
    scf.parallel (%arg2) = (%c0) to (%c2592) step (%c1) {
      %8 = arith.remui %arg2, %c8 : index
      %9 = arith.divui %arg2, %c8 : index
      %10 = arith.remui %9, %c18 : index
      %11 = arith.divui %9, %c18 : index
      memref.store %cst, %alloc_7[%c0, %11, %10, %8] : memref<1x18x18x8xf32>
      scf.reduce 
    }
    %reinterpret_cast_8 = memref.reinterpret_cast %alloc_7 to offset: [304], sizes: [1, 14, 14, 8], strides: [2592, 144, 8, 1] : memref<1x18x18x8xf32> to memref<1x14x14x8xf32, strided<[2592, 144, 8, 1], offset: 304>>
    memref.copy %alloc_6, %reinterpret_cast_8 : memref<1x14x14x8xf32> to memref<1x14x14x8xf32, strided<[2592, 144, 8, 1], offset: 304>>
    memref.dealloc %alloc_6 : memref<1x14x14x8xf32>
    %alloc_9 = memref.alloc() {alignment = 64 : i64} : memref<1x16x4x4xf32>
    %7 = scf.while (%arg2 = %c0) : (index) -> index {
      %8 = arith.cmpi slt, %arg2, %c256 : index
      scf.condition(%8) %arg2 : index
    } do {
    ^bb0(%arg2: index):
      %8 = arith.addi %arg2, %c1 : index
      %9 = arith.remui %arg2, %c4 : index
      %10 = arith.divui %arg2, %c4 : index
      %11 = arith.remui %10, %c4 : index
      %12 = arith.divui %10, %c4 : index
      memref.store %cst_0, %alloc_1[%c0, %c0, %c0, %c0] : memref<1x1x1x1xf32>
      %13 = arith.muli %10, %c3 : index
      %14 = arith.muli %12, %c-12 : index
      %15 = arith.addi %13, %14 : index
      %16 = arith.muli %arg2, %c3 : index
      %17 = arith.muli %10, %c-12 : index
      %18 = scf.while (%arg3 = %c0) : (index) -> index {
        %20 = arith.cmpi slt, %arg3, %c9 : index
        scf.condition(%20) %arg3 : index
      } do {
      ^bb0(%arg3: index):
        %20 = arith.addi %arg3, %c1 : index
        memref.store %cst, %alloc[%c0, %c0, %c0, %c0] : memref<1x1x1x1xf32>
        %21 = arith.divui %arg3, %c3 : index
        %22 = arith.addi %15, %21 : index
        %23 = arith.addi %16, %arg3 : index
        %24 = arith.addi %23, %17 : index
        %25 = arith.muli %21, %c-3 : index
        %26 = arith.addi %24, %25 : index
        %27 = scf.while (%arg4 = %c0) : (index) -> index {
          %38 = arith.cmpi slt, %arg4, %c200 : index
          scf.condition(%38) %arg4 : index
        } do {
        ^bb0(%arg4: index):
          %38 = arith.addi %arg4, %c1 : index
          %39 = arith.remui %arg4, %c8 : index
          %40 = arith.divui %arg4, %c8 : index
          %41 = arith.remui %40, %c5 : index
          %42 = arith.divui %40, %c5 : index
          %43 = arith.addi %22, %42 : index
          %44 = arith.addi %26, %40 : index
          %45 = arith.muli %42, %c-5 : index
          %46 = arith.addi %44, %45 : index
          %47 = memref.load %alloc_7[%c0, %43, %46, %39] : memref<1x18x18x8xf32>
          %48 = memref.load %0[%12, %42, %41, %39] : memref<16x5x5x8xf32>
          %49 = memref.load %alloc[%c0, %c0, %c0, %c0] : memref<1x1x1x1xf32>
          %50 = arith.mulf %47, %48 : f32
          %51 = arith.addf %49, %50 : f32
          memref.store %51, %alloc[%c0, %c0, %c0, %c0] : memref<1x1x1x1xf32>
          scf.yield %38 : index
        }
        %28 = memref.load %alloc[%c0, %c0, %c0, %c0] : memref<1x1x1x1xf32>
        %29 = memref.load %1[%c0, %12, %c0, %c0] : memref<1x16x1x1xf32>
        %30 = memref.load %alloc_1[%c0, %c0, %c0, %c0] : memref<1x1x1x1xf32>
        %31 = arith.addf %28, %29 : f32
        %32 = arith.cmpf ugt, %31, %cst : f32
        %33 = arith.select %32, %31, %cst : f32
        %34 = arith.cmpf ugt, %30, %33 : f32
        %35 = arith.select %34, %30, %33 : f32
        %36 = arith.cmpf uno, %33, %33 : f32
        %37 = arith.select %36, %33, %35 : f32
        memref.store %37, %alloc_1[%c0, %c0, %c0, %c0] : memref<1x1x1x1xf32>
        scf.yield %20 : index
      }
      %19 = memref.load %alloc_1[%c0, %c0, %c0, %c0] : memref<1x1x1x1xf32>
      memref.store %19, %alloc_9[%c0, %12, %11, %9] : memref<1x16x4x4xf32>
      scf.yield %8 : index
    }
    memref.dealloc %alloc_7 : memref<1x18x18x8xf32>
    memref.dealloc %alloc_1 : memref<1x1x1x1xf32>
    memref.dealloc %alloc : memref<1x1x1x1xf32>
    %alloc_10 = memref.alloc() {alignment = 64 : i64} : memref<1x1x10xf32>
    scf.parallel (%arg2) = (%c0) to (%c10) step (%c1) {
      memref.store %cst, %alloc_10[%c0, %c0, %arg2] : memref<1x1x10xf32>
      %8 = scf.while (%arg3 = %c0) : (index) -> index {
        %9 = arith.cmpi slt, %arg3, %c256 : index
        scf.condition(%9) %arg3 : index
      } do {
      ^bb0(%arg3: index):
        %9 = arith.addi %arg3, %c1 : index
        %10 = affine.apply #map(%arg3)
        %11 = affine.apply #map1(%arg3)
        %12 = affine.apply #map2(%arg3)
        %13 = memref.load %alloc_9[%c0, %10, %11, %12] : memref<1x16x4x4xf32>
        %14 = memref.load %4[%c0, %arg3, %arg2] : memref<1x256x10xf32>
        %15 = memref.load %alloc_10[%c0, %c0, %arg2] : memref<1x1x10xf32>
        %16 = arith.mulf %13, %14 : f32
        %17 = arith.addf %15, %16 : f32
        memref.store %17, %alloc_10[%c0, %c0, %arg2] : memref<1x1x10xf32>
        scf.yield %9 : index
      }
      scf.reduce 
    }
    memref.dealloc %alloc_9 : memref<1x16x4x4xf32>
    %alloc_11 = memref.alloc() {alignment = 64 : i64} : memref<1x10xf32>
    scf.parallel (%arg2) = (%c0) to (%c10) step (%c1) {
      %8 = memref.load %alloc_10[%c0, %c0, %arg2] : memref<1x1x10xf32>
      %9 = memref.load %5[%c0, %arg2] : memref<1x10xf32>
      %10 = arith.addf %8, %9 : f32
      memref.store %10, %alloc_11[%c0, %arg2] : memref<1x10xf32>
      scf.reduce 
    }
    memref.dealloc %alloc_10 : memref<1x1x10xf32>
    memref.copy %alloc_11, %arg1 : memref<1x10xf32> to memref<1x10xf32>
    memref.dealloc %alloc_11 : memref<1x10xf32>
    return
  }
}


